HW 04/model_lab.pth (torch, 845400 bytes, 8 tensors)

weight f4 [128, 784]
000000 03 ba f0 3c 75 a5 00 bd 53 de aa 3b 41 98 65 bc
       0.029385572 -0.031407792 0.0052144914 -0.014013351
000010 a1 c7 d7 bc 9a c9 00 3d 88 bd e3 bc c3 ba c0 3c
       -0.026340308 0.031442262 -0.027800336 0.023526555
000020 73 5b aa bc 45 00 83 bc ae d1 1b bc ea fc 98 bc
       -0.02079556 -0.01599134 -0.009510441 -0.018675286
000030 71 5c ae be 63 1b 0c be 75 75 ae 3e a1 83 26 3e
       -0.34054902 -0.13682322 0.34073988 0.1626115
000040 1c 70 84 3b 4a 12 66 38 4a 7d 85 3c 9a 06 9e 3c
       0.004041685 5.4853306e-05 0.016295094 0.019290257
000050 54 e5 02 3d fe 65 b9 bc e3 fa cf bc 15 a2 d1 3c
       0.031956986 -0.022631641 -0.025388187 0.025589982
000060 3c 2f 32 bc d3 c3 e0 bb 73 c0 06 3c 9e 6a 0b bd
       -0.010875519 -0.0068592816 0.008224594 -0.034037225
000070 0a af cc 3c 4a dc c7 bb 13 13 bb 3b 2e f4 d7 3b
       0.024985809 -0.0060992585 0.005709061 0.006590388
000080 44 0c 32 3e 37 21 9c 3e 22 17 8f 3e b3 d7 25 3e
       0.17387491 0.3049409 0.27947336 0.16195564
000090 fc 52 34 bd 13 c0 85 bd 37 c1 ae 3d 84 f5 85 3d
       -0.044024453 -0.06530776 0.085329466 0.06540969
0000a0 e7 63 1a 3c 1f a1 2a 3c a1 65 2f bd c2 2d 01 3e
       0.009423233 0.010414391 -0.04282153 0.12615111
0000b0 b0 5d 19 3e e8 a5 a4 3d 33 a6 7f 3d ed 59 8e 3d
       0.14977145 0.080394566 0.06241436 0.06950746
0000c0 a9 17 01 be ba 4c 3b 3e f6 f4 05 3c 9f 78 4f 3e
       -0.12606682 0.18290988 0.008176079 0.20260857
0000d0 4a cc ad bb 7c 48 9c 3c ae 58 52 3c 26 f6 06 3d
       -0.005303894 0.019077532 0.012838526 0.03294959
0000e0 b5 ae d0 3c fc ca 9a 3c 61 8b 1d be 2f 88 30 bd
       0.025473932 0.018895619 -0.153852 -0.043098625
0000f0 c8 f6 16 bd 27 8d 27 3e 54 02 7b 3d 67 d5 47 bd
       -0.036856443 0.16362439 0.061281517 -0.0487875
000100 ca 8b 13 3d d4 57 1c 3e db 03 c6 3e f3 85 96 bc
       0.036021985 0.15267879 0.38674816 -0.018374419
000110 6f 55 ad 3d fb 96 8e 3d b7 53 3d ba 92 e4 f3 3d
       0.08463561 0.06962391 -0.00072222523 0.11908831
000120 dd 65 89 3e 47 53 d2 3d df 65 9c bd 71 b4 82 3d
       0.26835528 0.1026979 -0.07636618 0.06382073
000130 8b 44 b8 3d ef 57 87 3d ce 9e 36 bd fb a1 26 be
       0.089974485 0.06608569 -0.04458504 -0.16272728
000140 b4 4d ac bd 83 f1 b7 3e 5c 51 61 3c 4a a1 eb bb
       -0.08413258 0.35926446 0.013752308 -0.007190858
000150 dc 2a f6 3b a5 2e 89 bc 11 9f 2c be 3b f5 c0 3d
       0.0075124335 -0.016745875 -0.16857554 0.09421774
000160 46 98 df be 04 de 44 3d ef 4b aa 3c 4e 35 fb 3d
       -0.43670863 0.048063293 0.020788161 0.122660264
000170 a5 13 9e 3d 41 23 14 3e 9b 9d 3a bd d0 65 2f bd
       0.07718591 0.14466573 -0.04556046 -0.042821705
000180 90 60 bc bc 0f 49 d2 bb 30 ea b6 3d d2 07 ca 3c
       -0.022995263 -0.0064174007 0.089313865 0.024661932
000190 d6 de 92 3c 90 02 28 bc c7 4d 85 3d 9b 52 5f 3e
       0.017928522 -0.010254517 0.065089755 0.21808855
0001a0 4f b3 05 3e b3 d2 46 bd b6 52 30 be a4 75 14 be
       0.13056682 -0.048540782 -0.17219052 -0.14498001
0001b0 c1 f8 7f be 5a 85 c7 3e 2a 68 87 be 85 d2 52 3c
       -0.24997236 0.38968927 -0.26446658 0.012867575
0001c0 f3 36 c4 3c 60 e9 42 3e 06 9e 03 3c 98 73 e0 3e
       0.023951983 0.19034338 0.008033281 0.4383819
0001d0 65 1b 49 3e 1f 12 aa 3d 80 5d 25 bd d3 87 57 3d
       0.19639356 0.083042376 -0.04037237 0.052619766
0001e0 5b 45 f0 3b 76 43 61 bc bb 60 bf bb 97 30 95 bd
       0.0073324866 -0.013748994 -0.0058403886 -0.072846584
0001f0 94 ec 85 bd 73 8d da bd 5a a3 e8 3b 96 9b bc bd
       -0.06539264 -0.106715105 0.007099551 -0.09209363
000200 4f c3 a6 bd 0b b7 ad 3c 5e de 8e bc 9e e6 18 3c
       -0.08142721 0.021205446 -0.017440017 0.009332327
000210 cf a3 87 bc e3 17 42 bd 3e 49 25 3d bf 8c da bd
       -0.016557602 -0.04738606 0.040353052 -0.106713764
000220 c6 d2 c1 bd 8c 22 97 bd 7f ff 8e be be 3e 84 3c
       -0.0946403 -0.07379636 -0.27929303 0.016143199
000230 63 bd a3 3c 5d 6a 05 bd e0 cb 83 be c5 30 59 3e
       0.019987768 -0.03257214 -0.25741482 0.2121001
000240 dd fe 0d 3e 75 76 13 3e 17 b7 85 3c 77 e6 c9 bb
       0.13866754 0.14400657 0.016322656 -0.0061615068
000250 c9 8f a8 bc f1 21 8f bd 14 6b c0 bd 75 ce 1b be
       -0.020576375 -0.06988896 -0.093954235 -0.15215476
000260 9c 80 5b be 92 59 c3 bd 00 41 79 bd 6f 2a 89 bd
       -0.2143578 -0.095385686 -0.060853004 -0.06697547
000270 e9 da 72 bd c1 94 28 bd b3 70 a7 bd 76 b7 96 bd
       -0.0592908 -0.041157488 -0.081757925 -0.07359211
000280 ea 97 41 bd d7 6c cb bd e7 d9 e2 3d 6e 58 86 3d
       -0.047264017 -0.09932869 0.11076718 0.065598354
000290 05 d0 87 3c 47 1a 8f bd ae 18 a0 3e bf ad c6 3d
       0.016578684 -0.06987434 0.3126883 0.09701108
0002a0 b5 05 b9 bc c8 b6 7c 3d c9 2e 4b be 0c 20 0e 3d
       -0.02258573 0.06169775 -0.19842066 0.03469853
0002b0 7d 54 5e 3e a8 d0 4f 3d cc 8b da bb b7 2e 84 bd
       0.21711917 0.0507361 -0.006669497 -0.06454223
0002c0 b4 cb db bd dd e7 c5 bd c7 df bb bd 61 39 d9 bd
       -0.10732213 -0.09663365 -0.091735415 -0.10606647
0002d0 1c c7 01 bd 7c 08 0c 3d d8 df 92 3d a7 54 cd 3d
       -0.031684026 0.03418778 0.07171601 0.10025912
0002e0 c0 98 40 3d c2 b2 14 3d cf 0a 10 be b2 58 17 be
       0.047020674 0.03630329 -0.14066623 -0.14779928
0002f0 22 b5 b9 bd a2 93 cd 3b 69 98 4d 3d 74 d8 2f 3d
       -0.090677515 0.0062737027 0.050194178 0.042931035
000300 f0 a0 08 3d 82 c8 25 be c0 d3 b2 3d dd 7f 8a 3e
       0.033356607 -0.16189769 0.08731794 0.27050677
000310 34 fc 4f 3d 14 07 f9 3d a4 27 c3 3d 6d dd c0 bd
       0.05077763 0.12159553 0.09529045 -0.094172336
000320 a3 eb 29 3e d8 37 a3 bd df 47 a9 bd 6b 67 52 bd
       0.16593795 -0.07969636 -0.082656614 -0.05136816
000330 6b 1b 5e bd 4f 13 92 3b 74 b4 b9 3d 1c 3a f1 3d
       -0.054225367 0.004457868 0.09067622 0.117786616
000340 8f 0b 22 3e d6 9a a6 3d a0 43 41 3d dd ec d2 3d
       0.15824722 0.08135001 0.047183633 0.10299084
000350 2f b2 75 3d fa 61 9a 3d cd a1 0d be 0d f3 35 be
       0.059984382 0.07538219 -0.13831253 -0.17768498
000360 be 32 87 bd dd a6 00 bd 21 e7 18 3d 39 59 10 3e
       -0.06601475 -0.031409133 0.037329797 0.14096536
000370 96 d0 58 3c 7a 58 2d be ea 51 00 be 5b 8b 22 3d
       0.0132333245 -0.16928282 -0.12531248 0.03968368
000380 ac 49 aa bc a6 c4 0f 3d a6 9c 41 be 08 08 97 3d
       -0.020787083 0.035099648 -0.18907413 0.07374579
000390 d0 90 aa 3d 24 78 cb bd f8 6c 93 bd ba e7 ba bd
       0.08328402 -0.099350244 -0.071985185 -0.091262296
0003a0 f6 bf 78 3d 44 34 d1 3d 68 c9 df 3d e3 59 e5 3d
       0.060729943 0.10215047 0.10927087 0.11198785
0003b0 8f 20 d0 3d 81 cb 83 3d 02 82 04 bd b7 1b 68 3d
       0.1016246 0.064353 -0.032350548 0.056667056
0003c0 c9 6b 91 3d 1f 81 43 3d 46 6b 97 bd 76 d2 43 bd
       0.071006365 0.04773056 -0.07393508 -0.047808133
0003d0 60 8a d9 3c 2c f2 fb 3d be fa f7 3d ac 33 a2 3d
       0.02655524 0.1230205 0.12108372 0.07920012
0003e0 46 05 79 bd 61 20 3c be bd b9 57 be 58 84 f9 bd
       -0.060796045 -0.18371727 -0.21066947 -0.12183446
0003f0 27 0d 44 3e 99 c4 cd 3d 49 38 08 bd 0a e2 8f 3d
       0.19145642 0.10047264 -0.033256803 0.070255354

bias f4 [128]
000000 21 83 94 bd 2f 11 31 3c 8d 9b 80 3f 47 98 3d 3f
       -0.07251573 0.01080732 1.004747 0.7406048
000010 ac 78 f4 3d 6d 99 80 3e 18 37 82 3f 32 96 02 bd
       0.11937079 0.25117055 1.0173063 -0.03188152
000020 0f df d2 bc ea c6 15 3e 3a 1f 82 bb 1b 6a 8d 3e
       -0.025741128 0.14626661 -0.0039710077 0.27620015
000030 25 c7 25 3f a7 b6 03 bd 0a a7 fc 3e 72 66 17 bd
       0.64756995 -0.032156613 0.4934619 -0.036962934
000040 05 a2 30 3c 7d dd 3c 3b 45 0b dc be 1a af 54 ba
       0.010780816 0.002881854 -0.42977348 -0.00081132504
000050 20 d9 ed bc 35 46 eb 3d 64 c1 af 3e 02 c3 18 bd
       -0.029034197 0.11488 0.34327233 -0.03729535
000060 a0 8b c2 3e c9 7e 4b 3b f6 14 c0 be b5 b7 c5 3c
       0.3799715 0.0031050912 -0.37515992 0.02413545
000070 7b 51 89 be ef 98 0a 3f 07 ac fa bc 38 0a ed bb
       -0.26819977 0.5413961 -0.030599607 -0.007233884
000080 23 ce 3a bd f4 e1 7a 3c 7f 01 c5 3d 4d 88 8e 3e
       -0.045606744 0.0153126605 0.09619426 0.27838364
000090 54 a0 83 be 96 3a 8a 3f ab c9 94 3d 42 99 d0 be
       -0.25708258 1.0799129 0.072650276 -0.40741926
0000a0 0d fa 41 be b3 f4 09 bc 00 a9 71 ba 82 7c 25 bd
       -0.18943043 -0.008420157 -0.00092186034 -0.040401943
0000b0 83 48 06 bf 8c 18 c6 3e 47 2a f3 be 96 da af 3e
       -0.52454394 0.38690603 -0.47493193 0.34346455
0000c0 3a 10 13 bd d8 3a a9 3f 47 8e 8c 3f 3f eb 8b bc
       -0.035904147 1.3221083 1.098092 -0.017079948
0000d0 c0 83 ad be 55 b9 11 bb ad 98 a4 be cd d1 23 bf
       -0.3388958 -0.002223571 -0.32147732 -0.63992006
0000e0 1b 00 b2 be d4 21 95 3f 4d 0f d6 3e 72 df 62 3c
       -0.34765705 1.1650949 0.4180855 0.013847219
0000f0 b9 12 bb bb 0b 4f ed bb 00 ec 41 be 27 18 57 3f
       -0.005709019 -0.0072420887 -0.18937683 0.8402123
000100 65 29 5b 3f d6 f9 0c bf 55 28 6a 3c e8 6b 5d 3f
       0.8561004 -0.5506872 0.0142918425 0.86492777
000110 91 53 6e bc 47 55 2d 3d c6 99 ea 3c 3d fe fc bc
       -0.014546291 0.042317655 0.028637778 -0.030882949
000120 73 1c e0 be f5 06 09 bc f4 e1 30 3e 10 14 51 be
       -0.43771705 -0.008363475 0.17273694 -0.2041781
000130 40 19 25 bf 80 89 48 3e 75 e2 82 be ab 69 bc bd
       -0.64491653 0.19583702 -0.25563398 -0.09199842
000140 79 1e 85 37 44 a2 25 be eb 19 63 3f ca 6b 09 bd
       1.5869025e-05 -0.1617518 0.8871142 -0.03355006
000150 93 77 ba bb 78 e4 52 3c 87 8e c9 bc 5b 42 35 bf
       -0.005690524 0.012871854 -0.024604095 -0.70804375
000160 19 f7 d3 be 85 19 8f 3f 5e e4 90 be 53 44 04 bc
       -0.41399458 1.1179663 -0.2829923 -0.00807293
000170 1f 35 a2 3c 5f 9c 87 3f 26 50 9f 3f 94 13 fe 3d
       0.01980072 1.0594596 1.2446334 0.12406078
000180 08 e2 68 3c 1d f2 ad bc 8e 7f 56 3f 8a 46 ca be
       0.014214046 -0.021233613 0.83788383 -0.39506942
000190 1b 65 3c 3c 28 c3 0f bf 00 57 06 3f 4d 6f d5 bc
       0.011498715 -0.5615716 0.524765 -0.026054049
0001a0 06 fb 95 3f 80 bf 70 3c 1a 70 c1 be ce 5e d8 bc
       1.1717231 0.014694095 -0.3778084 -0.026412394
0001b0 81 e5 75 3c e5 bf 16 bd 17 25 3e 39 a7 49 cb ba
       0.015008331 -0.0368041 0.00018133629 -0.0015509621
0001c0 14 61 b0 3f 68 3e c2 3e 9c 2f aa bc e1 7c 8b 3f
       1.3779626 0.37938237 -0.020774655 1.0897485
0001d0 24 02 3e bf 15 55 bc 3e a2 e9 a6 3f 65 4a 11 3f
       -0.74222016 0.36783662 1.3040049 0.5675414
0001e0 f4 4a 96 bc e8 81 14 bd 14 1e 5e 3f c3 a8 d5 3e
       -0.018346287 -0.0362567 0.86764646 0.41730317
0001f0 eb 89 77 3f cb 1b 87 bc b6 82 dd bc 8e 18 4b bc
       0.9669482 -0.016492745 -0.027039867 -0.012395991

weight f4 [32, 128]
000000 30 97 56 be f5 49 9a bd 16 1a ae 3c ee 7d 6c 3c
       -0.20956111 -0.075336374 0.021252673 0.014434321
000010 83 3d c1 3d 73 5d 98 bd fa 19 f4 3d 9f 4f 9e bd
       0.094355606 -0.07439699 0.11919017 -0.0773003
000020 3f 41 ca bd 61 a7 ad 3d 85 88 53 bd 50 92 27 3e
       -0.09875726 0.084791906 -0.051643867 0.16364408
000030 ba 95 b0 be c1 6f 72 bd 26 21 e7 3c 5a a9 9a bd
       -0.34489232 -0.059188608 0.028214049 -0.075518325
000040 e9 05 54 bd 02 15 0c 3d 21 17 21 be 80 ee 93 bb
       -0.05176345 0.034199722 -0.15731479 -0.0045145154
000050 df 83 ab bd 53 58 e9 bd 72 0d 89 3e 14 80 00 bd
       -0.08374762 -0.113938 0.2676807 -0.031372145
000060 c9 cc 1a be 21 02 59 3d 91 ed 63 bd 9c 38 06 3b
       -0.15117182 0.052980546 -0.055646483 0.002048052
000070 5e 4b 53 3e 33 70 a3 bd 9d 21 f7 bb 4c 49 86 bc
       0.20634219 -0.07980385 -0.007541849 -0.016392373
000080 8e 43 f4 3d 89 ca 96 bd 2d 14 4f bd 6a ae 77 be
       0.119269475 -0.07362849 -0.05055635 -0.24187627
000090 8f 12 57 be 0f cb 4d be 74 76 0d be 85 84 0e bd
       -0.21003173 -0.20096992 -0.13814718 -0.03479435
0000a0 98 0c 38 3d 82 f9 c4 3c 2e 55 c7 bd ba 99 af bd
       0.044933885 0.024044756 -0.097330436 -0.08574243
0000b0 19 cc 46 be 42 72 eb bc 7f 1e 87 be bd 0c e1 bd
       -0.19413795 -0.028741006 -0.26390454 -0.10988758
0000c0 0d fa 09 3d 26 e6 b7 bc dd 2b 39 bd c2 06 20 3d
       0.033685733 -0.02244861 -0.045207847 0.039068945
0000d0 c8 16 61 3e 08 8c 53 bc fc 26 0b 3e 30 03 23 3e
       0.21981347 -0.012911804 0.1358909 0.15919185
0000e0 f7 9c cb 3d e3 6b e7 bc 61 61 a0 3c 60 e8 73 3c
       0.09942048 -0.028249687 0.019577684 0.0148869455
0000f0 ba ca 61 3d de 99 2a bb e4 8e 63 bc c1 f2 26 3e
       0.055124976 -0.0026031653 -0.013889048 0.16303541
000100 6a 46 d3 be fe c3 dd bd 44 b7 20 bc 04 23 a8 3d
       -0.4126466 -0.10828398 -0.009809319 0.08209804
000110 a7 10 43 3d a6 85 28 3e 19 4c a6 bd cf bc 78 bd
       0.047623303 0.16457233 -0.08119983 -0.060726937
000120 91 87 12 be 37 fe c0 bc fb e0 13 be c9 c7 17 bc
       -0.14309527 -0.02355872 -0.14441292 -0.009263941
000130 32 c8 ee 3d 2e 33 81 bd 41 19 f5 3d 93 3c bf 3d
       0.11659278 -0.0630859 0.119677074 0.093377255
000140 9f e8 88 3d a4 91 9c 3c 92 da 84 3d c7 68 83 3d
       0.06684994 0.019112416 0.064870015 0.06416469
000150 b6 f3 55 3d c6 71 7b bd d2 6c 60 be c9 d5 91 bd
       0.052234374 -0.0613878 -0.21916512 -0.071208544
000160 23 fe 02 bd 88 55 34 3e 36 d0 4a 3e 02 60 7b 3d
       -0.031980645 0.17610753 0.19805989 0.061370857
000170 c3 51 12 bc c5 73 36 3e ab 46 0d 3e 6b 3c 2f 3c
       -0.008930626 0.178176 0.13796489 0.010695557
000180 bd 7a 01 be ec d0 a7 bd bd 43 61 bd 6e 2c 33 be
       -0.12644477 -0.081941456 -0.05499624 -0.17497417
000190 c5 0c 36 3d 51 4b e9 bd 17 e1 4e be b2 96 b0 bd
       0.04444577 -0.113913186 -0.20203052 -0.08622493
0001a0 4c 1b d0 be cd d3 b8 3c ae 86 da 3d c9 65 6e bd
       -0.40645826 0.022561932 0.10670219 -0.05820254
0001b0 cf 3f 99 3d 1c 05 7e 3d 92 48 4a bd 9c 36 48 bc
       0.07482874 0.06201659 -0.049385615 -0.012220051
0001c0 52 9d 1b bc e4 75 be 3d ea 65 7c 3d f4 19 cb be
       -0.009497957 0.092998296 0.06162063 -0.39668238
0001d0 89 d2 45 3e 91 da 42 be 0b 1d 0b bd 9b 71 1f 3e
       0.19318594 -0.19028689 -0.033963244 0.15570681
0001e0 49 b8 4c bc 14 f0 30 3d 03 75 19 be d5 7c 04 3e
       -0.012495109 0.043197706 -0.14986043 0.12938245
0001f0 32 1e 89 3e 35 5a 5b bd e7 b4 19 bd 58 99 14 3d
       0.2678085 -0.053552825 -0.037526038 0.036279052
000200 b2 d7 11 be 8d 94 3e 3d a0 aa f1 3d ac e1 0d 3e
       -0.14242437 0.046528388 0.11800122 0.13855618
000210 a2 6d fb 3d aa d6 1f 3d 8c 9f 72 bd 7d 6f 45 bd
       0.1227677 0.03902308 -0.059234187 -0.048202027
000220 49 40 d8 3c 57 ba 78 bd e6 04 8e 3d 1c 00 fa bc
       0.026397841 -0.060724583 0.06934528 -0.03051763
000230 23 00 53 3e 5d f7 eb 3c 0e 18 ed 3d 53 24 6d bd
       0.20605521 0.028804475 0.11576854 -0.05789597
000240 f9 67 e1 bc c9 69 ca bd 1a df 4d bd 2d e8 8e bd
       -0.027515398 -0.09883458 -0.050261594 -0.06977878
000250 b3 c1 2b bd 10 aa 0e be 00 a5 55 bc 0c 0e fc 3c
       -0.041932773 -0.13932061 -0.013039827 0.030768417
000260 9b 85 55 bd 14 d7 1e 3e 68 c8 b2 bd d9 a1 a6 3d
       -0.05212937 0.15511733 -0.08729631 0.08136339
000270 f4 44 83 3d ae 41 bc 3d a0 0b 09 bc 73 f1 46 3d
       0.06409636 0.09192215 -0.008364588 0.048570108
000280 6c cd 62 be a8 ff 97 3d c3 c3 9b 3d 93 c5 74 3e
       -0.22148675 0.074218094 0.07605698 0.23903494
000290 c1 98 88 3d e1 ad b9 3d c3 b4 96 bd ee 9c 27 bd
       0.066697605 0.09066368 -0.07358696 -0.040921144
0002a0 b0 45 86 bd 5f 04 8b 3c 4b 5f 74 3d 3d f6 95 3d
       -0.065562606 0.016969858 0.05966119 0.07322357
0002b0 be e4 f8 3d 89 d0 90 bd c4 66 83 3d 18 03 f0 bd
       0.12153004 -0.07071025 0.06416085 -0.1171934
0002c0 04 c1 23 bc 76 4f a3 be 62 77 20 3e 0e 10 95 3d
       -0.009994749 -0.3189656 0.15670541 0.07278453
0002d0 c2 e2 82 3d 33 3e a6 3d ed 92 ba 3d 8d 62 17 bd
       0.06390907 0.08117332 0.09110055 -0.03695922
0002e0 1e f1 be bd 60 38 38 3e 73 44 d2 3d 2a 2a 83 3d
       -0.09323333 0.17990255 0.10266962 0.064045265
0002f0 c0 68 36 bd 6f 1d ec 3c 79 42 7d 3d 28 ff 3d bd
       -0.04453349 0.028822629 0.06183097 -0.046385914
000300 f2 d8 e9 38 e5 6a 0c be da f7 9d 3d af 3e 5a 3d
       0.00011150715 -0.13712652 0.077132896 0.053282436
000310 a0 e5 3e 3d b8 17 02 be 26 4a 83 be 07 86 12 3d
       0.046605706 -0.1270436 -0.25642508 0.03577235
000320 11 29 12 be ad 9d 37 bb 88 f6 e8 3d e3 4f f4 bd
       -0.14273478 -0.0028017566 0.11375147 -0.119293
000330 cc 23 83 bd 4c 25 e0 bc 96 63 69 bd 01 10 10 bd
       -0.06403312 -0.027361535 -0.05697974 -0.035171513
000340 be 4a b5 bd 41 83 35 be b7 2c 9a 3e 47 51 78 bc
       -0.088521466 -0.1772585 0.3011224 -0.015156097
000350 13 04 38 3b 3b 68 46 3d 6d 6c 11 be bf 41 b4 bc
       0.00280786 0.048439246 -0.14201517 -0.022004006
000360 92 cf 0d be fc 56 b0 3e d2 21 39 be b3 1c a4 3c
       -0.13848713 0.34441364 -0.18079308 0.020033216
000370 c3 57 7c 3d e9 71 84 3e 83 3d 85 3e 83 27 01 3e
       0.061607134 0.25868157 0.26023492 0.12612729
000380 ee e9 a4 bd 7c e1 ea 3c 6c 3c 82 bd 65 50 c4 3d
       -0.08052431 0.028671972 -0.06359181 0.095856465
000390 c8 1b 83 bd 44 92 89 be 19 eb d3 bd 46 32 90 bd
       -0.06401783 -0.26869404 -0.10347576 -0.07040839
0003a0 25 f2 d4 3d a8 0a 86 bc d3 9b b7 bc 64 b6 26 3a
       0.10397748 -0.016362503 -0.02241317 0.0006359576
0003b0 a4 b4 33 bc 3b 3b f5 3c 77 ca 97 bc a8 0d 79 bc
       -0.010968361 0.02993547 -0.01852916 -0.01520101
0003c0 fc 16 84 3e e0 25 31 bc 07 8a 26 3d 93 f4 24 3d
       0.25798786 -0.010812253 0.040658977 0.040272307
0003d0 0b 15 ea bd 50 f7 39 bd 3a 3b 66 be d8 88 92 bd
       -0.11429795 -0.04540187 -0.2248353 -0.07155007
0003e0 47 78 5f bd 0b 52 94 bc d6 fd d6 bc f9 72 68 3e
       -0.054558065 -0.018105527 -0.026244085 0.22700109
0003f0 c8 85 c6 3d 18 ba aa 3d 92 3c 93 3d 6f 7b 99 3d
       0.096934855 0.08336276 0.07189287 0.07494246

bias f4 [32]
000000 5f 28 21 3e b7 0e 2e 3f 6a db 1b 3e 36 89 69 3e
       0.15738057 0.67991203 0.15220419 0.22806248
000010 cf 6a 4e 3e ab 8a ea 3d 38 a0 11 bf 30 23 f5 3e
       0.20157932 0.1145223 -0.568851 0.47878408
000020 47 5b 96 be a6 60 07 bb cc dc 40 be c1 58 60 bf
       -0.29366514 -0.0020656972 -0.18834227 -0.8763543
000030 9a c4 a4 3e e5 5d 48 3e bd 16 1a bf df 4e 15 3f
       0.32181245 0.19567068 -0.60190946 0.5832347
000040 d5 b5 b0 3d b7 a7 04 bf c6 b5 a3 be 4b 77 51 be
       0.08628432 -0.5181841 -0.3197462 -0.20455663
000050 66 05 0e 3f 0c 68 ec 3e 4a 04 47 3e b0 4b cb be
       0.5547699 0.4617313 0.1943523 -0.39706182
000060 e7 ca a7 3e 25 8c 76 3e 99 25 86 bd 6f 26 45 bf
       0.3277199 0.24076898 -0.0655014 -0.7701177
000070 49 f5 df be 4a 6d 55 3e ad 73 bd be 09 5e cc 3e
       -0.43741825 0.20842472 -0.37002316 0.39915493

weight f4 [128, 32]
000000 3e aa 15 be 9a 90 30 be d4 c9 16 3e 8b e0 49 3e
       -0.14615723 -0.17242661 0.14725429 0.19714563
000010 83 d3 81 3d 4c 8d ec 3d 5f 31 77 be 4a c7 27 be
       0.06339171 0.11550388 -0.24139927 -0.16384616
000020 27 76 f0 3d 62 63 f3 bd 0f d9 e7 bd a6 30 f0 3d
       0.11741286 -0.1188419 -0.113206975 0.11728029
000030 5f a0 d5 bd 13 4f 95 3e 94 38 aa be 4a 07 ef 3e
       -0.10430979 0.2916189 -0.3324629 0.4668525
000040 77 77 f2 3d a5 9a 9b bd ae 4c 35 3e ba 7e b6 3d
       0.11839192 -0.075978555 0.17705032 0.0891089
000050 02 27 bc 3c 00 f6 78 3d 3d 07 27 be 31 c9 a5 be
       0.02296782 0.06078148 -0.16311355 -0.3238006
000060 3a fd 0d 3e 1d 5f 9b bc 03 b5 8e bd 77 6b 84 be
       0.1386613 -0.018966252 -0.06968119 -0.2586324
000070 48 37 85 3d b7 2f f1 3d e5 9d 21 3e 20 7a c9 bc
       0.06504685 0.11776679 0.15782888 -0.024594367
000080 a1 19 42 3a e8 d7 0a be 49 c0 99 3e ac 84 19 3d
       0.00074043317 -0.13558924 0.30029514 0.03748004
000090 c4 c9 a1 3c 54 04 3b 3e b7 81 7a bc 14 2c 65 3e
       0.01974953 0.1826337 -0.0152897155 0.22380096
0000a0 a1 79 b6 bb 87 f9 4a be 68 4b 13 3e c1 75 f6 3e
       -0.0055686985 -0.1982175 0.14384234 0.48136714
0000b0 59 ec 55 bd c5 66 8f bd da 46 18 bd 1c da 13 3e
       -0.05222735 -0.070020236 -0.037176944 0.14438671
0000c0 95 bb c8 bd c4 2e 52 3e ea 30 13 bd 59 c0 3b bc
       -0.098014034 0.20525652 -0.03593532 -0.0114594335
0000d0 d1 6e 9e 3e e5 c6 62 be c6 33 8e be ad 54 10 3d
       0.3094392 -0.22146185 -0.27773875 0.035237003
0000e0 b9 76 42 be 3f 88 02 bc 66 50 ea bd 72 18 10 3d
       -0.18990602 -0.007967054 -0.11441116 0.035179563
0000f0 09 80 ec 3c 9c 7c 69 3d aa b7 ff bd 63 12 b5 3e
       0.028869646 0.057003602 -0.12486203 0.3536559
000100 fd 32 74 3e 4e 2e 34 3e 5e 4e 81 3e 97 94 75 bc
       0.23847575 0.17595789 0.25255102 -0.01498904
000110 8c 65 84 bd f4 6f 17 3e a4 b4 92 be d6 c5 93 3d
       -0.06464681 0.147888 -0.28653443 0.072154686
000120 c4 b5 a0 be 9b 5d 07 3e bc 95 8d be 72 26 cc bc
       -0.31388676 0.13219301 -0.276533 -0.024920676
000130 65 96 7a bb 3b 27 c3 bc c2 34 d8 be 4f 02 4b be
       -0.0038236615 -0.023822417 -0.4222775 -0.198251
000140 98 37 12 3e 59 b0 98 3e e1 41 11 3e e4 19 0f be
       0.1427902 0.29822043 0.14185287 -0.1397472
000150 6d e5 97 bd c2 9b 3d be 18 e2 f4 3c 4b 92 f0 bc
       -0.07416806 -0.18516448 0.029892966 -0.029366633
000160 60 9e bd 3d 23 2d 27 3d 6e 1e b1 be 9a d9 53 3e
       0.09258723 0.04081453 -0.34593529 0.20688477
000170 48 41 85 be b0 ef 04 bd 6c f8 1e 3e 01 39 f5 3d
       -0.26026368 -0.032455146 0.15524453 0.11973763
000180 1e ff 46 3e 1f 53 c8 be 68 7f a4 3d da 2b 66 3e
       0.19433257 -0.39125916 0.08032113 0.22477666
000190 f4 a9 69 bd 6d 68 cc be a4 69 b5 3d dd 07 8b be
       -0.057046846 -0.3992342 0.0885804 -0.27154437
0001a0 6d 8a 97 3e 67 2a 3f bd f1 c5 7d bd 80 d4 1a bf
       0.29597798 -0.046671297 -0.06195635 -0.604805
0001b0 24 1e 8b be 5f aa 5a be e2 e1 36 3c 43 ca 9b be
       -0.27171433 -0.21354054 0.011162253 -0.3042775
0001c0 92 c9 45 3e 56 66 a3 3e ad 64 02 be 34 3c ad bd
       0.19315174 0.31914014 -0.12733717 -0.084587485
0001d0 9d 23 0d 3e 1d ac 55 bd 6c e0 86 3e c7 56 d0 be
       0.13783117 -0.052166093 0.26343095 -0.40691206
0001e0 bb 02 06 be e9 62 6c bc 75 6c cf 3e 93 61 40 bf
       -0.13086979 -0.014427879 0.40512434 -0.75148886
0001f0 63 0c 88 bd 75 9d 82 be 6a 08 46 be 6d 57 c7 3d
       -0.066429876 -0.25510755 -0.19339147 0.09733472
000200 93 0b ef 3a 53 45 ee 3c f7 94 1c 3d e2 22 50 bd
       0.0018237702 0.02908579 0.038228 -0.050814517
000210 9a 91 9e bd 7e 0f dd 3d fa 3e 20 3d 53 94 20 be
       -0.07742615 0.107939705 0.03912256 -0.15681581
000220 b6 66 92 3c 83 cd 71 bd a2 61 89 bd 7e 78 b9 bd
       0.017871242 -0.059033882 -0.06708075 -0.09056185
000230 70 8e 84 bd 2e ca 6a be 59 ef e9 bc f7 12 bc 3d
       -0.0647248 -0.22928688 -0.028556513 0.09183305
000240 cf d3 0b bd ea 96 7c 3d 09 32 8c 3d 08 e2 81 bd
       -0.034137543 0.06166736 0.06845481 -0.0634194
000250 70 41 51 bd b2 4b 21 3d a5 21 5b 3e 1a 33 c4 bd
       -0.051087797 0.03937883 0.21399553 -0.09580059
000260 f8 0a c2 3d 48 9a e2 bd 2c bf 5b be 5d d6 ba bd
       0.094747484 -0.11064583 -0.21459645 -0.09122918
000270 ab 8f 90 3d 01 29 94 be c0 2a ab 3c 33 08 0c be
       0.070586525 -0.28937533 0.020894408 -0.13675003
000280 88 cc 4f be ef 70 33 3e e7 26 51 3d 68 06 05 3e
       -0.20292866 0.1752355 0.05106249 0.12990725
000290 31 48 bf bd 82 67 cb 3d d1 2f 0a be 70 94 3e 3e
       -0.09339941 0.09931852 -0.13494803 0.18611312
0002a0 13 22 08 be 4e b3 ae bd 67 0c 14 3e 7e 6a 0f bd
       -0.13294248 -0.085302934 0.14457856 -0.03501367
0002b0 fd 50 4a 3e 06 93 b9 3d ef 58 72 be 97 e7 38 3e
       0.19757457 0.090612456 -0.23666738 0.18057095
0002c0 b2 cc 83 3e b9 44 1c be 9e bc 14 3d bd 7e 5f bc
       0.25742108 -0.1526059 0.036312692 -0.013641057
0002d0 d6 2f 3a 3d 6f f0 8a bc 10 82 12 be 02 cf 26 3d
       0.045455776 -0.01696035 -0.14307427 0.04072476
0002e0 75 83 9a bc 8f 9c 4b 3e f8 36 91 bd 9e fe 9d 3d
       -0.018861512 0.19883941 -0.070905626 0.0771458
0002f0 77 ef 48 be a6 56 78 bd 67 e7 39 be 2a 45 ad 3c
       -0.19622599 -0.06062951 -0.18154679 0.021151144
000300 54 c8 ff 3d 37 66 ca 3c ec 76 79 be ed a4 a6 bd
       0.124893814 0.024706943 -0.24361771 -0.08136926
000310 9d bf ef 3d 7f 3f 62 3d f4 92 88 be ac 72 0e bd
       0.11706469 0.055236336 -0.26674616 -0.03477733
000320 21 80 52 bd 9c e9 ef 3d eb 2e 40 3e ca a5 c2 be
       -0.051391724 0.11714479 0.18767898 -0.38017112
000330 a3 cf d8 bd f6 7c 82 bd cc 75 55 3e 41 69 20 3e
       -0.105864786 -0.06371491 0.20845717 0.15665151
000340 16 ae b9 3c a6 0e 1e bd c3 9f 0f 3e e2 0a 5c 3e
       0.022666018 -0.03858819 0.14025788 0.21488526
000350 c7 54 0b be 37 da 0f 3e 20 0a 91 bd c2 2e 25 3d
       -0.13606559 0.14048086 -0.07082009 0.040327795
000360 e0 70 ed bd 90 1a 0e be cc a4 18 be 0d 32 48 be
       -0.11593795 -0.1387732 -0.14906615 -0.19550343
000370 8b e2 3e be b1 fd be 3d 6e 93 56 bb 72 f0 3b 3e
       -0.18641107 0.093257315 -0.0032741684 0.18353441
000380 3a 27 35 3e 49 96 f7 3e c5 76 f2 bd 66 98 ac 3d
       0.17690745 0.48356846 -0.1183906 0.08427505
000390 41 9e 0a bf 91 9e 41 3d e4 f6 25 bd e0 66 df 3d
       -0.54147726 0.04727036 -0.040518656 0.10908294
0003a0 2b 06 33 3e 1c 05 3b 3e fb f5 31 3d 11 61 d4 bd
       0.17482822 0.18263668 0.043447476 -0.103700764
0003b0 cc 4c c2 ba 0b 33 d6 3c 23 27 b1 bd 94 b9 e2 3e
       -0.0014823913 0.026147386 -0.08650043 0.4428221
0003c0 41 1f c7 bc a0 dd b2 3e 64 2f 4c be 4c b1 6a be
       -0.024306895 0.3493471 -0.19939953 -0.22919196
0003d0 22 fe 2f be 10 23 ea bc 21 5d bf be 32 c2 3a be
       -0.17186788 -0.028581172 -0.3737574 -0.18238142
0003e0 a5 cc 0a be 68 e8 72 be ab 6c 9c 3a 2c 17 ac be
       -0.13554628 -0.23721468 0.0011934241 -0.3361143
0003f0 0a 22 8a bc ce 98 99 3d 19 43 c7 3c 95 48 0c bf
       -0.016861934 0.07499848 0.024323987 -0.5479825

bias f4 [128]
000000 52 cb 8b 3e a3 08 85 3e c6 c6 38 be fc b2 c7 3d
       0.2730356 0.25983152 -0.18044576 0.097509354
000010 84 53 77 3e a1 c4 f4 bd 95 ac e0 3e b9 85 58 3e
       0.24152952 -0.119515665 0.4388167 0.21144761
000020 04 79 a3 3f f7 61 8e 3e 24 9b 70 3f 40 12 8e 3f
       1.2771306 0.27809116 0.93986726 1.109932
000030 6b a5 30 3f e5 af 7b 3e 1c 4b 49 3d 40 f5 a3 3f
       0.6900241 0.24578817 0.049143896 1.2809219
000040 35 b2 a0 3e 7c 2b d3 3e ed e9 c8 3f a8 b1 ea 3e
       0.3138596 0.41244113 1.5696388 0.45838666
000050 13 f0 8e bf 40 8a 44 3e ec 10 6b bf f6 f8 f6 3e
       -1.1167015 0.19193363 -0.91822696 0.48236817
000060 38 d4 94 3b 5d d9 76 bd 72 92 30 3f aa c4 e5 be
       0.0045419 -0.060265888 0.6897346 -0.44876605
000070 5e bc 5b 3f 32 7c d4 3e 85 10 72 3f aa ee 0a be
       0.858343 0.41501004 0.94556457 -0.13567606
000080 bd 33 7c 3e de 10 8f bd 7b 86 f8 3e 3b 69 0d bf
       0.24629112 -0.06985639 0.485401 -0.55238694
000090 65 67 82 3e 57 15 8e 3f 2c 9a 88 be 7f 5a 68 3e
       0.2546951 1.1100262 -0.26680124 0.22690772
0000a0 b6 fa d8 be 82 cc 3b 3f 61 46 20 3f 42 b6 a1 3e
       -0.42378777 0.7335893 0.6260739 0.31584364
0000b0 88 bb e4 bd dd 0c bb 3d ca bc c6 3e f8 70 41 3f
       -0.11168581 0.09133313 0.3881591 0.75563
0000c0 8b 27 fd bd 71 06 04 3f f3 ba ce be 0a ec 2a 3e
       -0.12361058 0.5157233 -0.40377006 0.16691604
0000d0 30 af 53 3f 84 ab 4f bf 47 de 62 3f 81 11 a2 3e
       0.8268919 -0.8112109 0.8862042 0.3165398
0000e0 8d ee 15 3f 95 06 bd 3e 3e ce 3e bf 31 0e f7 be
       0.58567125 0.36919084 -0.7453345 -0.48253015
0000f0 b9 77 8e 3e 13 3e 90 bf cb 11 45 bf cd 08 33 3f
       0.27825716 -1.1268944 -0.76980275 0.69935304
000100 85 6f 0f 3f c9 be f0 3e 44 30 91 be ab f8 6d bd
       0.5602954 0.47020558 -0.28357136 -0.058098476
000110 dd 99 09 bd e5 39 40 3f 94 7e 85 3e 7c 4b 37 bf
       -0.033594 0.7508834 0.26073134 -0.71599555
000120 e0 98 10 3d 01 8f 6f 3f ca e4 17 bf 1f a5 29 3f
       0.035302043 0.9357758 -0.5933348 0.6626758
000130 1a 2b 52 be 1c 25 70 3f 78 fb e7 bd 6e 59 89 3f
       -0.20524254 0.93806624 -0.11327261 1.0730417
000140 77 c5 d3 3e 8f 68 a5 3f b2 44 7b 3f 25 e6 54 3f
       0.4136159 1.2922534 0.98151696 0.8316367
000150 e0 29 55 3e 20 e8 4c 3d e5 7f 9e 3f 95 1c f5 3d
       0.20816755 0.05002606 1.238278 0.11968342
000160 90 14 90 3e 24 68 2e be 46 3f d0 3e 13 cc bc 3f
       0.28140688 -0.17031914 0.40673274 1.4749779
000170 0a 85 a4 3d a2 7b 08 3f 24 fe 1b 3f f2 d7 58 3f
       0.08033188 0.5331365 0.6093466 0.84704506
000180 57 94 b7 bf 97 a1 f0 bf 86 02 01 bf 66 ac 17 3f
       -1.4342145 -1.8799313 -0.50394475 0.59247434
000190 23 24 c3 3e 78 42 22 be 27 b4 47 3f 08 98 37 3d
       0.38113508 -0.15845668 0.78009266 0.044822723
0001a0 67 f5 66 be 4e 3b 21 3f e9 9f 8a 3e b6 bc 79 be
       -0.22554551 0.62981117 0.27075127 -0.24388394
0001b0 cd 9a 50 3e 20 be 04 3f fb 1c 41 be 77 40 e2 bc
       0.20371552 0.5185261 -0.18858711 -0.02761863
0001c0 84 7f 85 bf 48 f3 1a 3f bd 5a c3 3c 75 bd 6b 3e
       -1.042954 0.6052747 0.023846978 0.23021491
0001d0 37 55 0c 3f e8 f9 90 3f c5 aa 10 3f 6f 81 c0 bd
       0.5481753 1.1326265 0.56510574 -0.093996875
0001e0 93 99 9b be b7 d6 ae be a1 0a f8 3b c9 d4 18 3f
       -0.30390605 -0.3414819 0.0075696264 0.59699684
0001f0 a6 be d1 bd d3 d1 98 3f da dc ad be 84 5b 81 3f
       -0.102414414 1.1939033 -0.3395756 1.0106053

weight f4 [784, 128]
000000 6e d5 38 bd f6 af 82 bc ce 4e ca bd e9 7f 67 3d
       -0.045125417 -0.015953045 -0.09878312 0.05651847
000010 74 0d d7 bd 7a 3d f0 bd 3d 4d 22 3d 45 ec e2 3c
       -0.10500613 -0.11730476 0.03962444 0.027700553
000020 94 a8 0b be 8a bc 52 3d 53 98 06 be 89 38 1c 3d
       -0.13638526 0.051449336 -0.13144045 0.038139854
000030 dd 21 82 bd 5f ed 87 bc e3 75 5e bc 74 8b ca bc
       -0.06354115 -0.01659268 -0.013577911 -0.0247247
000040 e8 0e c9 bd a4 59 94 bd 38 5d 9c bd 2d 9c 21 bd
       -0.09817296 -0.0724366 -0.076349676 -0.03945558
000050 37 2e 55 bd 23 79 91 bd 79 00 b3 bd 38 ec f0 3b
       -0.052046027 -0.07103183 -0.087403245 0.007352378
000060 52 27 63 bd de 89 0e 3d d4 9c 23 bd e7 e4 5b be
       -0.05545742 0.03479945 -0.039944485 -0.21474038
000070 1b 4a 07 3d 5c 88 16 bc bd 20 29 3d 38 23 76 be
       0.033029657 -0.009187784 0.041290987 -0.24036872
000080 10 22 30 3b f0 91 9f bd 02 40 b1 3c 24 60 83 be
       0.0026875772 -0.07791507 0.021636967 -0.25659287
000090 0e fe 35 3c 9c 60 da bd 88 0f 0a 3d 56 b8 17 bd
       0.011107935 -0.10662958 0.033706218 -0.03704103
0000a0 71 7a 4d 3d bf 87 0f 3d 91 3c 76 bc 1d 77 62 3d
       0.050165597 0.035041567 -0.015029089 0.055289377
0000b0 9c 03 c4 bb 0a b5 16 3d 54 b5 ad bd 0f e6 a4 bd
       -0.0059818756 0.036793746 -0.08481851 -0.08051693
0000c0 d9 24 ae 3c c2 ae 81 bc 3a 91 48 be 5c b3 57 bc
       0.021257805 -0.015830401 -0.1958665 -0.013165321
0000d0 36 1c 96 3b 9a 73 30 3c 19 67 e2 bc 0c 01 bf bd
       0.0045809997 0.010769749 -0.027637051 -0.093263716
0000e0 89 66 fc 3c 9b 02 4e 3d dc b3 49 3d 67 4e 6a 3c
       0.030810611 0.050295454 0.049243793 0.014300919
0000f0 b5 48 f5 bd b6 48 c2 bd 93 52 fc bd 1e a4 44 3d
       -0.119767584 -0.09486525 -0.12320437 0.048008077
000100 7d 50 6b bd 62 62 45 3d b3 ce 83 3b 50 83 a1 3c
       -0.057449806 0.04818953 0.004022443 0.019715935
000110 4e 18 4b 3c 87 ee 41 bd 81 2f e7 bd df d4 47 be
       0.012395931 -0.047346618 -0.112883575 -0.19514798
000120 09 28 69 bd 03 56 43 bd fd b3 c7 bd 4c ad 0d bd
       -0.056922946 -0.04768945 -0.09751127 -0.034589097
000130 8c 00 c0 bd 7d c6 5d bd 40 65 2c bc 4b 6e dc 3c
       -0.09375104 -0.05414437 -0.010522187 0.02690806
000140 79 ec 3d be e6 ba 50 3c 79 15 3d 3d 1e 52 8c bd
       -0.18547238 0.012739873 0.046163056 -0.068516
000150 e5 bd 6f bc 87 51 6f bd c7 de a5 bc d2 ff 90 bc
       -0.014632677 -0.05842736 -0.02024783 -0.01770011
000160 98 8b e5 bd cd d6 6a bd ee cb e0 bc 87 e8 cf bd
       -0.11208266 -0.057333756 -0.027440991 -0.10151773
000170 95 a9 ea bd ec 64 ba bd f6 93 9b bd 6e 3b 5c 3d
       -0.114581265 -0.091012806 -0.07596581 0.053767614
000180 65 de 12 3d 72 d5 57 be 6b 3a 41 be 21 f0 ed bd
       0.035856623 -0.21077517 -0.18869941 -0.116180666
000190 7f e3 93 3b 25 63 ab bd 97 ea 71 bd 8f 9b 33 3d
       0.0045132036 -0.0836852 -0.059061613 0.043849524
0001a0 3c eb de bd 70 5e b1 bd 88 8d 24 bd 6f d5 c5 bd
       -0.10884711 -0.08660591 -0.040174037 -0.0965985
0001b0 5c 3c a0 bd e1 3d d2 bd dd 0e 61 bd 13 86 72 bd
       -0.07824013 -0.10265709 -0.054945815 -0.059209894
0001c0 53 3a 79 bd e0 44 23 bb 64 4e 99 3b e4 55 44 be
       -0.060846638 -0.002491288 0.0046785343 -0.1917339
0001d0 9d 8f 88 3c 32 51 85 3c e1 cc f3 3a 4c ad 69 bd
       0.016670043 0.016274069 0.0018600487 -0.057050034
0001e0 bc 7a bf bb 1b bd a2 bd 43 cc ba 3c 31 a8 d0 bd
       -0.0058434885 -0.07946225 0.022802478 -0.1018833
0001f0 c3 3e b0 bd fe 0c 62 bd 10 c9 47 3d 04 99 da bc
       -0.08605721 -0.05518817 0.048775733 -0.026684292
000200 7a 7e 8f bd 2b 49 43 bd a4 af ae bd 22 33 ec 3c
       -0.07006545 -0.0476772 -0.085295945 0.028832976
000210 aa 33 01 3d 5f 51 df bd 9c ff 11 3d 2a 58 94 bd
       0.03154341 -0.10904192 0.03564416 -0.072433785
000220 c0 59 50 be bd f0 ac bd e5 85 7f bd 4a 4f f7 bb
       -0.20346737 -0.08444355 -0.06238355 -0.007547294
000230 c3 d6 b9 bd e7 ce 2a bd f6 36 c4 bd b1 b6 7c 3c
       -0.09074166 -0.041701224 -0.095807955 0.015424416
000240 89 58 54 3d 82 0e 7f bc 65 1d ca bd ae c1 5f 3c
       0.051842246 -0.015567424 -0.09868888 0.013657017
000250 61 aa 4d bd e7 28 4d 3c ee dd b4 bc 15 5b f8 bd
       -0.050211314 0.012521959 -0.02207848 -0.121267475
000260 09 29 cc bc 1d 4d 0c 3c 05 aa 76 3c 3b c9 6e be
       -0.02492191 0.008563307 0.015055184 -0.23318951
000270 6a 60 16 bd 29 5a 3f bd 2e 9c 54 bc 4b fd 86 be
       -0.03671304 -0.046716843 -0.012976689 -0.26365122
000280 0e 3c 66 bd 69 38 f2 bc bb e1 fe 3b d1 01 40 be
       -0.056209616 -0.029567914 0.007778374 -0.18750693
000290 a1 df b9 bd 3b b9 1e bc 82 40 8c bd ee f6 d1 bd
       -0.09075857 -0.009687717 -0.068482414 -0.10252176
0002a0 09 9a cc 3b 0c 44 80 bc c0 ec e5 3a 92 28 f4 3c
       0.0062439484 -0.015657447 0.001754187 0.029804502
0002b0 e4 04 69 bd 6b 3e e5 bc e2 d8 f2 3c 26 8a d3 3c
       -0.05688943 -0.027983865 0.029644433 0.02582271
0002c0 98 10 c2 bd 21 9b 11 bd 2b c0 f3 bd 66 bd e7 3b
       -0.09475821 -0.035548333 -0.119018875 0.0070721386
0002d0 22 de 7e bd 43 c0 ad bb 2e dd b5 bd ba fc d8 bc
       -0.06222356 -0.0053024604 -0.08880077 -0.026487697
0002e0 9e 74 c4 bd a9 f5 ad bc 74 ff 92 bd 06 19 41 bd
       -0.095925555 -0.021235304 -0.0717763 -0.047143005
0002f0 32 f8 88 3c ab 09 68 3d 57 38 8b bd f5 c0 1a bc
       0.016719911 0.056649845 -0.06797855 -0.009445419
000300 45 5b 1c bd 77 23 ec bd 78 cd 01 3d d5 10 88 bd
       -0.03817298 -0.11530202 0.03169009 -0.066438355
000310 cd 16 0e 3d a7 08 13 ba 7b 47 2b 3d 1c 13 82 be
       0.034689713 -0.0005608894 0.041816216 -0.25405204
000320 1c 98 56 bd 7d 82 37 be 6e d7 97 bd 56 c6 a9 bd
       -0.052391157 -0.17920871 -0.07414137 -0.08289783
000330 f4 8e 41 bd ec d7 74 bd 7f 9d 05 bd 90 5d 67 bd
       -0.04725547 -0.05977623 -0.032620903 -0.056485713
000340 88 7f 10 be 7f a4 96 bd ad 5f 64 bd 31 17 b0 bc
       -0.1411115 -0.07355594 -0.055755306 -0.021495434
000350 ba f1 86 3d 0a e1 ce bd 9f 05 c5 bc 03 63 6e 3d
       0.065890744 -0.101015165 -0.024050532 0.058199894
000360 a9 03 86 bd 1d 35 5d bd 8d 66 0e bc ac 37 81 bc
       -0.06543667 -0.05400573 -0.008691442 -0.015773617
000370 23 d5 9a bd 2e 20 cb bd 0f 04 b4 3c 83 cf e7 3c
       -0.07560184 -0.09918247 0.021974592 0.028297191
000380 22 c8 88 bd 4b 48 20 be 34 d4 be bd 06 5b 65 be
       -0.06678797 -0.15652578 -0.09317818 -0.22398004
000390 bd f8 cc 3c 66 26 39 3d 91 16 b6 bc 63 01 52 3d
       0.025020951 0.045202635 -0.022227557 0.051270854
0003a0 1f 9a ca bd 19 c9 ad bd c9 e1 e8 bd 43 de 29 3d
       -0.098926775 -0.08485622 -0.1137119 0.04147173
0003b0 90 7c 6c 3c b7 ea 01 be ea 56 44 3d 65 05 ed bd
       0.014433995 -0.12687193 0.04793445 -0.115732946
0003c0 5c f7 bf bd fc af 02 be a6 22 5f 3d 4d 1a 41 be
       -0.09373352 -0.12762445 0.054476403 -0.18857689
0003d0 b5 4e 0a 3d e0 a7 b2 3a 15 c8 6a bd c6 33 e0 bb
       0.033766467 0.0013630353 -0.05731972 -0.0068421094
0003e0 2e 0c 01 bd 5c 33 38 3c 88 20 e4 3b 7e 0f 3f be
       -0.031505756 0.011242714 0.006961886 -0.18658254
0003f0 17 c3 cc bd c9 bf bd bc 06 7e b2 bd 1b b4 ad bc
       -0.09998148 -0.02316274 -0.08715443 -0.021204045

bias f4 [784]
000000 fd 28 dd bd 68 99 02 3c cd e2 e7 bd 62 05 4b 3c
       -0.107988335 0.007971145 -0.11322556 0.01239142
000010 ed b4 9f 3c 59 5a b1 ba 02 d7 4e bd cb ef d4 bc
       0.019495452 -0.0013530954 -0.050498016 -0.025993248
000020 e5 b3 79 bd e2 6f 3a bd 36 d7 3f 3d 8c 62 76 3c
       -0.060962576 -0.045516856 0.0468361 0.015038144
000030 c4 54 2e 3d ce 5b c3 3c 1d 5f 85 bd 58 ac 76 bc
       0.042561308 0.023847487 -0.06512282 -0.015055738
000040 e8 8d b8 bd 99 ae c9 bb 47 32 36 3d 10 32 d5 3b
       -0.090114415 -0.006154847 0.044481542 0.006506212
000050 b2 59 86 bd b1 ca a9 bd 72 9b 5c ba b7 55 e4 bd
       -0.06560077 -0.082906134 -0.0008415497 -0.11149161
000060 42 bb 0d 3d d2 22 93 bd 7b ba 18 bd f0 75 d6 bd
       0.03460241 -0.07184376 -0.037287217 -0.104717135
000070 57 c0 89 bd 66 f8 c1 bd 80 a0 f2 bd 79 73 ea 3c
       -0.06726139 -0.09471206 -0.11847019 0.028619515
000080 f1 f6 71 3c 08 5b d7 bd 86 cf 9e bd b6 ca be 3a
       0.014768348 -0.1051541 -0.07754426 0.0014556262
000090 cc a4 6d 3d e6 40 e8 bc bb 5c 09 be 55 a1 77 bd
       0.05801849 -0.028351258 -0.1341428 -0.060456593
0000a0 53 fd b5 bc 81 8b 49 bd 4e d5 88 bd ee 66 e2 bd
       -0.022215521 -0.049205307 -0.0668131 -0.110547885
0000b0 a4 65 0b bd f6 73 77 3d dc 4f 65 bc 64 55 cd bd
       -0.03403248 0.060413323 -0.013996091 -0.100260526
0000c0 34 b1 d0 bd 4f 7a 5f bd 2f 6c 7b 3c 88 95 c2 3b
       -0.10190049 -0.054560002 0.015345617 0.0059382357
0000d0 ec f0 67 bc 50 22 05 bd 5e a7 65 bd 5e 07 5a 3d
       -0.014156561 -0.032503426 -0.056067817 0.053229682
0000e0 f7 b1 1b 3d 4f 8f 12 bd 30 11 bb bd e2 fb 50 3d
       0.038011517 -0.0357812 -0.09134138 0.051021464
0000f0 5e 0d 67 3d 95 61 41 3b 68 bf bf bd 95 03 2b 3d
       0.056409232 0.0029507626 -0.0936268 0.041751463
000100 e7 d0 96 bd ff 86 e8 bd 30 b9 81 be 7b 4c af be
       -0.07364064 -0.113538735 -0.253366 -0.34238037
000110 d5 4e b2 be d4 ed 60 be 8a 85 8a be ad 96 63 be
       -0.3482577 -0.21965724 -0.27055007 -0.22225447
000120 6e 5b ce be ba 1e b3 be 44 f8 80 be 08 24 3d bd
       -0.4030413 -0.3498438 -0.25189412 -0.04617694
000130 a1 d4 3b be 4a 16 d9 bd ce 4d 1e bd c1 7e 64 bd
       -0.1834283 -0.105999544 -0.03864842 -0.055784944
000140 b5 c1 16 bd 96 64 e9 bd 33 d2 6f bd e2 af 67 3d
       -0.036805827 -0.11396138 -0.05855007 0.05656422
000150 7c ca 93 3c f8 fb 5f 3c 48 41 88 bd e9 36 21 3d
       0.018040888 0.013670914 -0.066530764 0.039359007
000160 c4 df 47 bc 96 87 7b bd e9 06 87 bc d4 4c 85 3c
       -0.012199346 -0.0614086 -0.016482787 0.016271986
000170 24 59 05 be a1 53 07 be c7 f3 84 be ca 2b 6e be
       -0.13022286 -0.13215496 -0.25967237 -0.23258892
000180 ac 9e 78 be 65 1f d8 be 1f 0a d3 be 78 a8 89 be
       -0.24279279 -0.42211452 -0.4121866 -0.26886344
000190 e6 95 ef be f8 59 9d be c9 de 79 be 58 53 9c be
       -0.4679405 -0.30732703 -0.24401392 -0.30532336
0001a0 4f f0 47 be 79 47 02 be ec 62 7e 3a cf cf 65 bd
       -0.19525264 -0.12722577 0.00097040716 -0.056106385
0001b0 33 4c 10 bd 7f a8 b8 bd ea 8b bb bd 55 a0 76 bb
       -0.03522892 -0.09016513 -0.09157546 -0.0037632186
0001c0 50 37 cd bd 65 4a 90 bd 5f 67 14 bd 07 36 ad bd
       -0.10020316 -0.0704544 -0.036231395 -0.084575705
0001d0 fb 03 02 bd 35 d8 69 bd aa bc 16 bd 8d d2 9b bb
       -0.031742077 -0.057090957 -0.036801018 -0.004755324
0001e0 18 ed a8 bd 7c 1a a4 bc e3 f2 23 bd 11 bf f3 bd
       -0.08248347 -0.02003216 -0.040026557 -0.119016774
0001f0 de bc fc bd a5 9b 69 be 0d cd b0 be 96 59 ae be
       -0.12340711 -0.2281328 -0.3453144 -0.34052724
000200 6f ac b2 be 6e 85 a3 be c4 50 79 be b4 93 3d be
       -0.3489718 -0.31937736 -0.24347216 -0.18513376
000210 58 fd 51 be 2c 40 9c bc fb 5b 0e 3d fb 60 a3 3b
       -0.20506799 -0.019073568 0.03475569 0.004985926
000220 94 04 a2 bb 74 49 d3 bd 1d 57 51 bd 9e 90 82 bd
       -0.0049443934 -0.103167444 -0.05110847 -0.0637524
000230 54 60 5a bb f5 48 ca bd 8e 90 8c bd d7 0f 41 bb
       -0.0033321576 -0.09877197 -0.06863509 -0.0029458904
000240 08 d5 c7 bd 2e 12 15 3e 4c 22 05 3e 56 b7 a1 3d
       -0.09757429 0.14557716 0.13001364 0.07896297
000250 10 da 0b 3d 9f ee 07 3e 64 b9 41 3e e9 17 dc 3d
       0.034143507 0.1327462 0.18918377 0.10746748
000260 a6 6e 67 3d ce 19 ae bd b8 a3 f1 bd fd 2d 0e bd
       0.056502007 -0.085010156 -0.11798805 -0.034711827
000270 b5 8f 25 be 07 f9 ca bd 70 47 ca bc 21 73 20 be
       -0.16168101 -0.099107794 -0.024692267 -0.15668918
000280 ff 24 56 bd 57 00 48 3d 5b e5 3a 3d 8f 0c 0a be
       -0.052281376 0.04882845 0.045628887 -0.13481353
000290 1f d4 6c be 63 24 08 be 07 bc e8 bd 8d f3 44 3d
       -0.23127793 -0.1329513 -0.11363988 0.04808383
0002a0 1b 95 0a 3d c3 f9 17 3c c0 31 00 bd e0 2f 80 3d
       0.033833604 0.009275856 -0.031297445 0.062591314
0002b0 38 0d ac bd 18 eb c1 3d 01 b9 0a bd c0 12 11 3d
       -0.08400959 0.09468669 -0.03386784 0.035418272
0002c0 2c fb 47 bd 1f 0f 8e 3d 20 ce ae 3d 4d 34 85 bd
       -0.04882352 0.06936478 0.08535409 -0.06504116
0002d0 f6 b8 87 bd 02 34 11 be 81 32 7c be 08 8f 53 be
       -0.066270754 -0.14179996 -0.2462864 -0.20660031
0002e0 77 9a 33 be f3 3a 89 bd 0c 1a 16 be bb 3c fa bd
       -0.17539392 -0.06700697 -0.14658374 -0.12218615
0002f0 11 ca 1b 3d a8 da 42 bc f1 23 4f 3e ff c1 cf 3b
       0.038034502 -0.011892952 0.20228554 0.006340265
000300 12 7b 03 be c6 78 af be 9f 74 1d be 8d 3d 91 bc
       -0.12839916 -0.3427183 -0.15376519 -0.017729545
000310 c3 fe 11 bd 8f ff 6c bd 28 17 ce bd 73 2a 52 be
       -0.03564335 -0.057860907 -0.100630105 -0.20524006
000320 c1 db dd bd ec a9 b8 3d 94 ae 60 3c 61 76 09 be
       -0.1083293 0.09016785 0.013713498 -0.13424064
000330 41 77 8a be ba 5f c2 be ad f1 ae be e9 64 98 be
       -0.2704411 -0.3796366 -0.3416876 -0.29764488
000340 a0 11 58 be fa 0e a1 be 36 f9 c9 be 07 c7 cf be
       -0.21100473 -0.3145674 -0.39447945 -0.40581533
000350 1d 0e 97 be a5 1a 71 be 4d bb 6d be 7e ff 98 be
       -0.29502955 -0.2354532 -0.23215981 -0.29882425
000360 d7 77 32 be 50 af 8d bc 2f 90 82 3d be 7c 55 3d
       -0.17428528 -0.01729551 0.06375157 0.052120917
000370 76 c0 42 be f2 6b a1 be 09 f5 60 be bf 8c 76 bb
       -0.1901873 -0.31527668 -0.21968473 -0.0037620512
000380 67 41 61 bd d6 b9 1c 3d 42 8d a0 bb e5 0b 70 be
       -0.054994013 0.038263164 -0.0048996517 -0.23442037
000390 0c f8 ac bc 4d 44 fe bd f3 72 cd bd ef 4d 5a be
       -0.021114372 -0.12415371 -0.100316904 -0.21318792
0003a0 89 42 f4 be 67 ca 1e bf ea a7 e0 be f5 9d ac be
       -0.47707012 -0.6202759 -0.43878108 -0.33714262
0003b0 b1 07 d1 be 5e 9e ed be e1 a2 e8 be 15 4f 85 be
       -0.4082618 -0.46409887 -0.45436767 -0.26036897
0003c0 11 c7 12 be 08 cf 94 be aa 6d c6 be e0 89 e2 be
       -0.1433375 -0.29064202 -0.38755542 -0.44245815
0003d0 15 09 ca be f7 4b e6 bd c5 32 05 bd b3 bd 8c 3a
       -0.39460054 -0.11244958 -0.03251912 0.0010737687
0003e0 d6 be 77 be cd a1 87 be 81 71 01 be 8c e3 c7 bd
       -0.24193892 -0.26490632 -0.12640955 -0.09760198
0003f0 07 ee 4b 3d e6 24 4a 3d 08 bd 1d be 12 a8 67 be
       0.049787547 0.049351595 -0.15404141 -0.22622707
