HW 04/model_ex.pth (torch, 848386 bytes, 12 tensors)

weight f4 [128, 784]
000000 25 d3 d7 bc d3 99 0b bd 48 c4 e2 bc 4a 2c 5a bc
       -0.026345799 -0.034082245 -0.027681485 -0.013316223
000010 63 25 cf bc 05 80 b0 3c ae f1 b9 3b 13 5b 16 bb
       -0.025286382 0.02154542 0.0056745624 -0.0022942468
000020 6e fa 31 bc ea b6 38 bc 0e f9 ac bc 5c 87 05 bb
       -0.01086293 -0.011274079 -0.021114852 -0.002037487
000030 ae d8 13 3e 66 5d 12 3e 7e d2 3d bd 91 cd 06 bd
       0.14438125 0.14293441 -0.04634332 -0.032910887
000040 13 2c 04 bd 8a 8c cb bc 20 f9 a0 bc 77 3b 8d bb
       -0.032268595 -0.024847288 -0.019650042 -0.0043100673
000050 8e 73 f9 3c 38 db 75 3c 01 80 ad 37 70 d8 a8 3c
       0.030450609 0.015005879 2.0682814e-05 0.020611018
000060 80 ef 29 bc 7c de 75 bc d3 2b bd 3b 41 9f e2 bc
       -0.010372043 -0.015006658 0.0057730465 -0.027663829
000070 73 b2 c9 bc 13 0a e3 3b 25 23 a4 3a bc 24 00 3c
       -0.024621224 0.006928691 0.0012522681 0.007821258
000080 84 c8 47 3d 23 84 44 bd f4 9f 7e be 7d b8 8c be
       0.04877521 -0.047977578 -0.24865705 -0.27484503
000090 d0 1b ef be 8c 27 2b be 44 c5 59 3e bc 34 45 3e
       -0.46700907 -0.16714305 0.21266657 0.19258398
0000a0 41 b5 5f 3e 5b de 29 3e 63 a2 cb 3c 52 95 a2 3e
       0.21846487 0.16588728 0.024857705 0.31754547
0000b0 72 6f be 3e e0 21 99 3e 9e 8e 1c bd 51 1f 56 3d
       0.371944 0.29908657 -0.038221948 0.05227596
0000c0 75 ec 8b 3e 65 62 c6 3e 6e c4 82 3e bb 09 82 3c
       0.2732884 0.38746944 0.2554049 0.01587378
0000d0 ee 70 09 bc 25 09 db b9 9c 7f 0c 3c 45 cc bb bc
       -0.008388741 -0.00041777748 0.008575346 -0.022924552
0000e0 65 4b 25 bc f1 a1 f3 bc 3b 0b 0a be e7 8b f6 3d
       -0.010088776 -0.029740306 -0.13480847 0.12038403
0000f0 d6 ef ed 3d 5c e6 9d bd 58 6d e2 be a8 5e d0 be
       0.11618011 -0.07709953 -0.44224048 -0.40697217
000100 01 e0 11 bf e7 a3 8e be bd 81 00 bd 15 c6 25 3e
       -0.5698243 -0.27859423 -0.031373728 0.16188844
000110 a0 cc 4a 3c 47 cd b6 3e 26 cc 1d 3e 3b c4 22 3e
       0.012377888 0.3570349 0.15409908 0.15895168
000120 80 fd 0a 3f 9d 03 31 3f 20 fd 1a 3f f6 ec a2 3e
       0.5429306 0.6914614 0.6054249 0.31821412
000130 23 93 41 bd e4 18 e7 be 9f 58 8c be 49 8c a7 be
       -0.04725946 -0.45136178 -0.27411363 -0.32724217
000140 46 6a e6 3d 37 68 20 3d d3 bf 90 bc ae 2a ad 3c
       0.11250739 0.039161887 -0.017669594 0.021138515
000150 08 45 0f bd 98 43 f1 bc f2 31 4f be 70 fe bb bc
       -0.034977943 -0.029451177 -0.20233896 -0.022948474
000160 1f c9 0e 3e e3 0e b4 bd 87 74 e6 be b2 4b 1d bf
       0.13943909 -0.08791902 -0.45010778 -0.61443627
000170 ba aa fc be 46 b0 a0 be f4 c6 bc bd ce f5 82 bd
       -0.49349004 -0.31384486 -0.09217635 -0.0639454
000180 24 42 21 be 58 ec 1b bd 66 7d 8b bd 4e 35 52 3d
       -0.15747887 -0.03806719 -0.06811027 0.051320367
000190 c1 45 1c 3e 2d 20 48 3e 01 ee d1 3e c2 e1 8f 3e
       0.15260984 0.19543524 0.41001895 0.28101927
0001a0 a5 43 b4 3d 3a 4d 27 be 8e 3b 0f 3d e4 82 81 3c
       0.08801965 -0.16338053 0.034968905 0.015809484
0001b0 b7 da 1b 3d 5a 3a 6c bd 9a ac 02 3d 33 9c 66 bc
       0.03805038 -0.057672836 0.031902887 -0.014075327
0001c0 80 20 84 3c 40 61 84 3d 8d dd 02 3d ef 05 9a be
       0.016128778 0.064638615 0.03194957 -0.30082652
0001d0 b7 af d6 3e 88 70 8d bd 6e aa 2f be ed d9 f8 be
       0.41930935 -0.06906229 -0.17154858 -0.48603764
0001e0 a1 16 27 be 18 ec 14 be bc a6 10 be 94 c6 17 bd
       -0.16317226 -0.14543188 -0.14126104 -0.037054613
0001f0 fc 19 f4 bd 89 d7 0e be b9 64 1d be 7a aa 18 be
       -0.119190186 -0.13949408 -0.15370454 -0.14908782
000200 e3 66 d6 bd ff 45 a8 bd a4 6f f0 3d 1b 8d a6 bc
       -0.10468843 -0.08216476 0.11740044 -0.020330956
000210 62 e7 a6 bd 99 9b 1a 3e fe 0f b6 3c 23 bd 28 be
       -0.081496015 0.15098418 0.022224423 -0.164784
000220 f2 e0 a8 be a3 9f e4 3d e5 df 40 3d 29 6f 84 3d
       -0.3298412 0.11163261 0.047088522 0.064665146
000230 dc ca f2 ba 7c ad d1 bc 1a f8 0f be 1c 4b 19 3e
       -0.0018523592 -0.02559542 -0.14059487 0.14970058
000240 bb f5 00 3d d4 1f 3e bd 80 6b 41 be 1e 7a 3d be
       0.031484347 -0.046417072 -0.18888664 -0.18503615
000250 79 31 74 be 54 34 2f be d7 41 09 be 9f 36 88 bd
       -0.23846997 -0.17109805 -0.13404022 -0.06651043
000260 f4 45 25 3d 35 06 8d 3d f0 cf 9a 3d 96 37 17 3b
       0.040349916 0.068859495 0.07559192 0.0023073903
000270 a6 5f d8 3d c5 e3 a5 3d 33 d7 ba 3c c9 c1 a4 3b
       0.105651185 0.08100084 0.022807693 0.005027984
000280 2b 78 1e bd 09 41 3d 3d 42 6e 5a bd c8 95 a7 3d
       -0.03868882 0.0462046 -0.053327806 0.081828654
000290 b7 6a 92 be e5 2f 39 be 5d cd 83 be 2c 56 ea bd
       -0.28597042 -0.18084677 -0.25742617 -0.11442217
0002a0 ca 0c 99 bc e7 69 64 bd 7d 76 fe bd 12 00 3c 3e
       -0.018682856 -0.05576506 -0.124249436 0.18359402
0002b0 23 f2 9a 3e 9e e3 98 3e 58 8a ae bd 2b 76 30 be
       0.3026286 0.29861158 -0.08522481 -0.17232578
0002c0 36 fa b2 bd 23 0d ee bd c2 04 a4 bd 37 b0 aa bd
       -0.0873913 -0.116235994 -0.0800872 -0.083343916
0002d0 fd 72 68 bd 67 13 3b ba 45 68 80 3d ec ae ad 3d
       -0.056750286 -0.0007136375 0.06269888 0.08480629
0002e0 14 ba 1e 3e 42 dd 23 3e a2 e0 e2 3d 16 f1 ca 3c
       0.1550067 0.16002372 0.110780016 0.024773162
0002f0 ce 23 ff 3d 57 81 40 3d f9 80 13 3d 5f 32 af bd
       0.12458001 0.046998348 0.03601167 -0.085545294
000300 fe 16 51 be 9d cf 8f be e6 41 b6 be 2e cc e3 3c
       -0.20418927 -0.28088084 -0.35597152 0.027807321
000310 aa a7 72 3d 64 d1 21 bd b2 20 cb bd 3c a4 33 3e
       0.05924193 -0.03950633 -0.099183455 0.17543119
000320 53 5c ab 3e 04 26 4a 3e 5e fa 70 bd dd 06 81 ba
       0.33468875 0.19741064 -0.05883252 -0.0009843964
000330 a7 e7 ed 3c 2f 93 9d bd b0 82 ba bd de d9 6f 3d
       0.029041125 -0.07694089 -0.09106958 0.058557384
000340 57 b6 49 3c bb e3 80 3d 8f a5 24 3e 36 58 2a 3e
       0.01231154 0.06293436 0.1607878 0.16635212
000350 04 15 01 3e 70 3e 76 3d 24 3b ac bd 85 31 3e bd
       0.12605673 0.06011814 -0.08409718 -0.046433944
000360 8a 28 3d 3d 31 28 0f 3b e9 66 09 be fe 3c e4 bd
       0.04618124 0.0021844024 -0.13418163 -0.11144446
000370 48 ab 9f be 3c c3 e8 be bd 57 45 be e0 b4 06 3e
       -0.31185365 -0.45461452 -0.19271751 0.13154936
000380 ba 9c a4 3c 30 94 ba bd 2f 54 63 be aa c7 13 bd
       0.020094264 -0.09110296 -0.22200082 -0.036079086
000390 97 bc b9 bb 21 41 e5 bd 61 f6 ea bb 6b ec 36 be
       -0.0056682336 -0.11194063 -0.007170484 -0.17863624
0003a0 3e 2a 41 bd fe 56 01 3d 8a 7d ee 3c ff 3c b1 3c
       -0.047159426 0.031577103 0.029112596 0.02163553
0003b0 9a 00 13 3d aa 1f 16 3d 5c c5 f4 3c 0c 6a f6 bb
       0.035889246 0.03665129 0.029879265 -0.007519966
0003c0 39 22 34 3d 23 41 10 be 88 f0 3d be c4 79 11 be
       0.04397795 -0.14087348 -0.18548787 -0.14206606
0003d0 f4 50 82 bd 99 8f 6d be 99 92 b7 bd ff 54 59 be
       -0.06363097 -0.2319931 -0.08963508 -0.2122383
0003e0 75 75 20 be 36 29 03 bf 5b ed 2f be 86 57 63 3e
       -0.15669806 -0.5123476 -0.17180388 0.22201356
0003f0 ab 75 6c 3c e1 e5 7a 3d 50 79 a0 bd 0b 9b 84 be
       0.014432351 0.061254386 -0.078356385 -0.25899538

bias f4 [128]
000000 c8 ed 31 bf e1 77 48 be 7e d6 04 bd 9d 22 72 3c
       -0.6950345 -0.1957698 -0.03243112 0.01477876
000010 48 f4 5a be 6c 85 f3 bc de 69 7a 3f 65 d6 04 3f
       -0.21382248 -0.029726706 0.9781779 0.5188964
000020 ae 57 0f 3f 96 94 d1 3e 73 59 aa 3d ce b0 f1 3e
       0.55993164 0.40933675 0.08317842 0.47205204
000030 64 af 81 3c 8a 85 a9 3d d5 18 80 be ee b9 96 bb
       0.015830703 0.08277424 -0.25018945 -0.0045998013
000040 39 0a 0a bc 66 5f a1 3c c9 eb 7a bc 67 35 96 be
       -0.008425289 0.01969881 -0.015315005 -0.29337618
000050 b1 a4 5f 3d 42 28 fc be 14 e3 22 3c 4a 0d b7 be
       0.05460042 -0.49249464 0.009941835 -0.35752326
000060 5f 2c 23 3c ee 66 c5 3b 2a 4f cd 3e 4e 0f 7d 3d
       0.009959309 0.006024233 0.4009946 0.061782174
000070 09 db 33 bc a5 03 b3 be e0 1b 7a 3c f6 b7 84 3d
       -0.010977515 -0.34963718 0.015265435 0.064804
000080 6b e0 02 3e d4 2a 26 3f 8f fd cf 3c 69 fa 3d bd
       0.12780921 0.649091 0.02538946 -0.046381388
000090 9c 33 0b 3f f3 6f 31 bd 47 d8 30 3c 52 ed 37 3f
       0.54375625 -0.043319654 0.010793752 0.718465
0000a0 fb 12 2a bf 5e 5b 06 3f 37 35 d9 3e 06 8e c5 3c
       -0.6643521 0.52483165 0.42423412 0.024115574
0000b0 3c f0 23 3f 81 07 22 bc 90 e5 16 bd da 6f 38 bc
       0.64038444 -0.009889484 -0.03684002 -0.011257136
0000c0 66 e6 3c 3e de a0 2a bd f8 ed 0f 3f 75 da c0 3c
       0.18447265 -0.04165732 0.56222486 0.023541668
0000d0 87 cf 5e 3f ee c1 2b bd d4 a6 91 bc 18 e5 d8 be
       0.8703541 -0.041932993 -0.017779745 -0.42362285
0000e0 4b 5d 18 be b9 1e a6 3c 49 03 49 3f 13 36 b9 3e
       -0.14879338 0.020278322 0.7852064 0.36174068
0000f0 9e 59 0c bc 4c 40 6b 3f 95 78 a9 bc e9 f0 69 3c
       -0.008566288 0.91894984 -0.02068738 0.014278629
000100 43 c0 42 bc f4 81 20 3c e4 39 95 3e d7 46 86 bb
       -0.011886659 0.009796608 0.2914573 -0.0040978002
000110 f6 7d 43 3c 45 02 0d 3e 66 0d 1b 3f 43 4e 9f 3f
       0.011931887 0.13770397 0.6056732 1.2445759
000120 9b 6e cd be c0 2c 10 bd 5a 8d 3f bf 1b ee d9 3b
       -0.40123448 -0.035198927 -0.7482506 0.006650699
000130 37 22 69 bb d2 46 20 bd 62 52 8d be f1 e1 69 3f
       -0.0035573372 -0.03913004 -0.27601916 0.91360384
000140 de 16 56 bd 10 15 98 bd 9d 80 b7 3b 12 d5 c8 3d
       -0.0522679 -0.07425892 0.0056000487 0.09806265
000150 e0 b3 94 be be cd fd be 62 97 15 3f e0 33 95 3d
       -0.29043484 -0.4957103 0.58434117 0.07285285
000160 f0 ad ca bd 3c 88 71 3e d8 07 d1 bb 6f 50 de 3c
       -0.09896457 0.23587126 -0.006379109 0.027137963
000170 14 46 e8 bc f4 d5 8b 39 7c aa b4 bc 12 f5 99 3f
       -0.028353728 0.00026671553 -0.02205395 1.2027915
000180 87 23 a5 3f 8c 2d fb be f6 f8 93 3d 86 61 f6 3b
       1.2901467 -0.49058187 0.0722522 0.00751895
000190 38 fe 6e bc 23 34 89 be 02 00 55 bc 6f d8 80 3e
       -0.014586978 -0.2679759 -0.01300049 0.25165126
0001a0 ab 74 93 bc 8a 1a 31 bb ce dd 6f be 0c ce 2c 3a
       -0.017999968 -0.0027023875 -0.23424456 0.00065919827
0001b0 a8 61 dd 3e 7c 1e a0 3e af b2 2b 3c 4d b7 33 bf
       0.43238568 0.31273258 0.010479613 -0.7020157
0001c0 e7 71 df 3e 94 2a 89 ba 9e 29 03 bf 0b 31 f5 3b
       0.43641588 -0.001046496 -0.5123538 0.007482653
0001d0 5e 47 09 bd 7b a5 32 3f 3a ec 9c 3f ca a8 85 3f
       -0.033515327 0.69783753 1.2259591 1.0442135
0001e0 27 ae cd 3b da 6b 6a 3e 82 b0 92 be c0 7a 67 3e
       0.006276864 0.22892705 -0.2865029 0.22605419
0001f0 c6 8c db bc ce 1e e4 bd 4d cc 36 bd db 12 b9 bc
       -0.026800524 -0.11138688 -0.04462843 -0.022591999

weight f4 [32, 128]
000000 2a c5 3e bc a2 10 be bc e7 fd b3 3d 89 e1 e4 bc
       -0.011643687 -0.02320129 0.087886624 -0.027939575
000010 0b 80 e3 3c a3 0f 2d bc 07 d9 3c ba 26 3c 23 bd
       0.027771017 -0.01056281 -0.00072039705 -0.039852284
000020 3b 8c e5 bd cf 4a 91 bd 4f 13 b9 bd b3 0f f8 bc
       -0.112083875 -0.07094347 -0.09036886 -0.030280923
000030 3e 34 aa 3d cf 84 ba bc 25 f2 77 bd b5 2a 84 3d
       0.08310746 -0.022768406 -0.06053366 0.06453458
000040 74 b9 a2 bd 48 47 91 bc d4 52 77 3d bb 54 cd bd
       -0.079455286 -0.017734185 0.060381725 -0.10025927
000050 75 7c cb bd d7 02 87 bc ac 24 0e bd fa 82 81 bd
       -0.09935848 -0.016480846 -0.03470294 -0.0632381
000060 2b fe 56 3d c0 49 5b bd 8b ca 27 3d 20 fc b4 3c
       0.052488487 -0.05353713 0.040964644 0.022092879
000070 11 34 2d 3d ac 85 3a 3c 46 3a b9 bb 45 df 9a bd
       0.042285983 0.011384409 -0.0056526987 -0.075621165
000080 5a f7 a6 bd 0a 9a 87 bc fd 02 85 3d 6c 63 2c bd
       -0.08152647 -0.016552944 0.064947106 -0.042087004
000090 c5 ac d0 3c a9 21 a7 bd ca 62 9d bb 2c fb 92 bd
       0.025473008 -0.08160717 -0.0048030363 -0.071768135
0000a0 4f 32 0d bd 21 14 46 3d 85 c6 d5 bc 9e ed 92 bd
       -0.034471806 0.04835904 -0.026095638 -0.07174228
0000b0 42 dc 09 bc 80 fc 3b 3d 8b 8c 7b bd 33 22 1d 3d
       -0.00841433 0.0458951 -0.06141333 0.038362693
0000c0 2e d1 a5 3c 51 e1 28 bb 25 19 c4 bd 23 71 d1 bc
       0.020241346 -0.0025769065 -0.095751084 -0.025566643
0000d0 81 51 22 3d 71 eb 64 3d 01 75 b8 bc c4 88 00 3d
       0.03962851 0.055888597 -0.02251673 0.03138043
0000e0 55 4d b9 bd 94 d9 ac 3c d2 d6 ea bc ed 42 1e bc
       -0.09047953 0.021099843 -0.028666887 -0.009659511
0000f0 59 a0 8e 3d 39 c0 bd bd fc f7 1e bd 78 9f 87 bc
       0.06964178 -0.09265179 -0.038810715 -0.016555533
000100 d0 52 9f bd 86 e4 a3 ba dc 83 b7 bd 9d 95 8e 3d
       -0.07779467 -0.0012504018 -0.08960697 0.0696213
000110 8c c1 d8 3c 11 71 53 bd 96 ae 36 3d 62 5a a1 3d
       0.026459478 -0.0516215 0.044600092 0.07878567
000120 29 8d 44 3d 77 b1 21 bd 56 80 e4 bb 07 36 82 bd
       0.047986183 -0.039475884 -0.0069733066 -0.06357961
000130 3d 1e 5a bc c9 8c 11 bc 6b a5 2e bd e0 89 88 bd
       -0.013312873 -0.008883663 -0.042638224 -0.066669226
000140 2b 4d 92 3d a3 af 07 bd 81 68 49 3d 15 c9 62 3d
       0.07143625 -0.033126485 0.04917193 0.055367548
000150 24 ac 36 3d c4 57 81 3c f9 58 62 bd e9 1e 8f bd
       0.04459776 0.01578892 -0.055260632 -0.069883175
000160 d3 1e ca 3c 8f cb 91 bd 79 d6 d7 3c 2b f5 50 3d
       0.024672901 -0.07118904 0.026347386 0.05101506
000170 17 24 57 bd 8f 55 4f bc 7f 7b ad 3c a9 6e 02 bd
       -0.052524652 -0.012654676 0.021177052 -0.031843815
000180 02 8e 9c bd c1 0d 85 bd a6 94 b6 bb 6f 60 38 3d
       -0.07644273 -0.06496764 -0.0055719195 0.04501384
000190 12 65 9a 3d 04 3b bf bd 91 3e 24 3d c4 f7 af bc
       0.07538809 -0.09337428 0.04009873 -0.021480449
0001a0 6a 3a 63 bd 1e 29 59 3d ae a7 1e 3a 8e f5 21 bd
       -0.05547563 0.053017728 0.0006052208 -0.03954082
0001b0 97 75 b5 3b 7b 46 21 3b 4c 0a 95 3d 2f fe 74 bd
       0.0055376994 0.002460866 0.072773546 -0.05981272
0001c0 b1 b7 6c bc 51 58 06 bd c6 d9 8f bc 8d 9a b0 3d
       -0.014448092 -0.03279907 -0.017559897 0.08623228
0001d0 e5 73 74 bd 5e dd 11 bd 7f bb ed bd 64 4c 7d bd
       -0.05968084 -0.035611503 -0.11608028 -0.06184043
0001e0 24 c0 0b 3a c7 ef 57 bd fc 14 94 3d da 22 81 bd
       0.00053310604 -0.052718904 0.07230565 -0.063054755
0001f0 fc 18 9d bd c7 75 0a bd e0 c8 a9 3d 0d 76 f8 3b
       -0.07670781 -0.033803727 0.08290267 0.007582432
000200 13 e4 6b bd 6b 78 b8 bd 2f d9 11 3d 0c bb d8 3c
       -0.057590555 -0.09007343 0.035607513 0.026456378
000210 16 44 b5 bc 51 69 a5 3c 32 64 41 3d 79 c3 cb 3c
       -0.022127192 0.02019182 0.047214694 0.024873482
000220 fc 6e 33 bd f0 c2 59 3d 32 e0 7b 3c 3c 9b cd bd
       -0.043807015 0.053164423 0.015373277 -0.10039374
000230 5c 6f 85 3d 1c dc 20 3d 30 f9 fb b9 73 5e 9d 3d
       0.06515381 0.039272413 -0.0004806011 0.076840304
000240 41 d5 4e 3d f6 ae a3 bd 52 cc 70 3d df e7 5e 3c
       0.050496344 -0.079923555 0.058788605 0.013605087
000250 f3 fa 26 bc b5 55 ca 3c b2 18 96 bd 70 5c be bd
       -0.010191667 0.024699071 -0.07328929 -0.09294975
000260 79 a1 71 bc 10 dd 67 bb bb 9a bb bd dd bf 46 3d
       -0.014747971 -0.0035379566 -0.09160372 0.04852282
000270 8b 53 3c bd 6a 87 96 bd 7a 04 a4 3b 61 6e 52 3d
       -0.04597811 -0.07350047 0.0050054165 0.051374797
000280 74 f2 14 3d be 9a 50 3c a7 02 72 bc de 1f 74 bd
       0.036364034 0.012732206 -0.01477114 -0.059600703
000290 a4 16 2b bd 7e 92 2c bd b1 16 de bc 6a 15 35 bc
       -0.04176964 -0.042131893 -0.02711043 -0.011052469
0002a0 f8 1d b6 bc a4 20 10 bd b6 2f 3e bd a2 26 ea 3c
       -0.022231087 -0.03518738 -0.04643222 0.028582875
0002b0 1c 5b 07 3d 10 0c 90 3d f3 37 c1 bd c7 b7 64 3d
       0.033045873 0.07033551 -0.094344996 0.055839326
0002c0 87 92 bb bd b5 50 ac bc d0 ac 88 bb a5 e6 35 3d
       -0.09158807 -0.021034578 -0.0041709915 0.044409413
0002d0 ee 00 34 bd 92 c9 95 3d 19 75 98 bd 4c 0d a9 bd
       -0.0439462 0.07313837 -0.074442096 -0.08254489
0002e0 de a9 84 bd 15 31 c3 bc 68 47 7f bc 9e 6f 6a bb
       -0.06477712 -0.023827115 -0.015580989 -0.0035772095
0002f0 7b 0f 21 bd 65 a9 b2 bb 30 fb 87 3d f6 f1 2e 3d
       -0.039321404 -0.0054523223 0.06639707 0.04271122
000300 db 97 51 3d 3f bf 1e ba 85 98 0e be ac 8c 9c 3d
       0.05117021 -0.00060557196 -0.13925369 0.076440185
000310 5f a3 d0 3c da ce a3 bc 97 dc 04 3b d6 2b 65 bd
       0.025468526 -0.019996095 0.0020273083 -0.05595001
000320 77 74 e2 bd 67 6a 87 bd 62 53 e6 3c b4 ae ac bd
       -0.1105737 -0.066120915 0.028115932 -0.084317595
000330 c3 dd 49 3d ab a1 76 bc 39 c2 d6 3c 10 66 83 bb
       0.049283754 -0.015053193 0.02621566 -0.0040099695
000340 f6 6a 89 3d fc 11 9f bb 55 bd ea 3c 47 d6 6c bc
       0.06709854 -0.004854439 0.028654734 -0.014455385
000350 38 4e 3e bd 30 6d 36 bd 93 92 8a bd f4 83 c9 bc
       -0.046461314 -0.044537723 -0.06766238 -0.024599053
000360 b7 2a 05 be 6d 26 bf 3c bf 1a a5 bd 1a 30 9a 3d
       -0.13004576 0.023333753 -0.08061742 0.07528706
000370 44 75 5d bd 77 a2 53 3d 0a 53 dc bc 71 83 43 3d
       -0.05406691 0.05166861 -0.026895065 0.047732774
000380 6d 82 e7 3b 23 1a ab bd 53 ab 63 bd 5a 9b b3 bc
       0.0070651085 -0.083545946 -0.05558331 -0.021924663
000390 04 69 98 3d fa 82 06 3d 36 93 30 bc 52 fc 7f bd
       0.07441905 0.032839753 -0.010777285 -0.06249649
0003a0 48 69 4b 3d ce 35 3f 3c aa b1 e3 bd be 01 17 bd
       0.04966095 0.011670543 -0.11117871 -0.036866896
0003b0 fa a2 6b 3d c6 0d 69 bd e4 7d 0b bd e8 10 64 bc
       0.057528473 -0.0568979 -0.034055606 -0.013920046
0003c0 13 50 5b bd c0 0c aa bd 38 0a ff bd 09 f4 5a 3d
       -0.05354316 -0.08303213 -0.12453121 0.053455386
0003d0 b9 b0 18 bc b7 29 d1 bc 49 6f 07 bc a2 05 30 be
       -0.009319478 -0.025532587 -0.008266279 -0.17189649
0003e0 66 c2 23 bd 58 e4 0f be e4 1b cb bd a5 69 19 bc
       -0.039980315 -0.1405195 -0.09917429 -0.0093635665
0003f0 ff d5 0c bd 59 7e 17 bd db 7f a0 3d c1 44 49 3d
       -0.03438377 -0.03698573 0.078368865 0.049137834

bias f4 [32]
000000 59 77 83 bd 6a ac 4f bd f9 5f 6c bd 41 12 02 3e
       -0.06419248 -0.050701536 -0.057708714 0.12702276
000010 e8 ca 10 3e c2 35 b1 3e 71 ae 9c bd 0b 23 94 3c
       0.14139903 0.34611326 -0.076504596 0.018083116
000020 cb d3 56 3e 4a 70 69 3f 52 a2 13 3e c0 05 e1 3d
       0.2097923 0.91186965 0.14417389 0.10987425
000030 48 d4 51 3e 5e eb 9b bd 0f b2 d9 3c 11 ef 60 3e
       0.20491135 -0.07613252 0.026574163 0.21966197
000040 d5 01 03 3e 6c c0 80 bd 5d d0 03 bf e1 d6 db 3d
       0.12793668 -0.062867016 -0.5148981 0.10734344
000050 fb 81 38 3d ac fb c6 bd e8 61 ba bc dd e1 03 3d
       0.045045834 -0.09715971 -0.022751763 0.032197822
000060 ba 46 2a bd 05 4a 3c bb 44 b1 9b 3e e9 53 f0 3e
       -0.041571356 -0.0028730643 0.3040868 0.46939018
000070 10 78 79 3e c9 3a e7 3e 2c 67 74 3c 0c d6 82 3d
       0.24362206 0.45162037 0.014917176 0.063884825

weight f4 [3, 32]
000000 f0 a2 53 3e 47 fc f3 bd d7 92 a1 bc 87 3f c7 3c
       0.20667624 -0.119133525 -0.019723339 0.024322284
000010 9c c7 24 3d 79 26 84 3e fa fc 74 bd 3e 6a c0 bd
       0.040229425 0.25810602 -0.05981157 -0.09395264
000020 79 3c 10 3e 77 48 b7 be 74 98 ae 3d 14 e7 a5 bd
       0.14085568 -0.35797474 0.08525172 -0.08100715
000030 13 8f 98 3e 41 7b 50 bd 3a d6 59 3c 2b 0c 34 3e
       0.29796657 -0.050898794 0.0132957045 0.17582767
000040 e2 7a 77 bd 27 6d c1 3e 73 32 00 bf 9b 72 2d 3e
       -0.060419925 0.3777859 -0.5007698 0.1693825
000050 da 53 0f be ea 87 8d bd 48 f2 c9 bd 34 14 7d bc
       -0.1399683 -0.06910689 -0.098606646 -0.015446711
000060 91 a3 a4 bd 9d 26 ac bd 40 63 fe be d8 b2 71 be
       -0.0803901 -0.084058024 -0.49685097 -0.2360338
000070 28 e5 77 3e 28 77 1b bf 33 d3 2e be cd 3f 22 be
       0.2420851 -0.60728693 -0.17072754 -0.1584465
000080 10 d8 04 3e b8 a5 d8 bc b4 1a 64 bb fe 6d 8a 3d
       0.12973046 -0.026446208 -0.0034805955 0.067592606
000090 5f d8 29 be 07 9b 05 3e 79 81 f4 3b 09 b3 3a 3c
       -0.16586445 0.1304742 0.0074617234 0.011395224
0000a0 3d 4f 19 bc 8f c5 87 3e 31 8c a6 3e 15 51 5c 3e
       -0.009357271 0.26517913 0.32528833 0.21515305
0000b0 56 a2 07 be 18 20 8c bd 93 6d c7 3e 0a 48 43 3e
       -0.1324552 -0.06842059 0.38950786 0.1907045
0000c0 b6 3c b5 bd 75 93 86 be 5d 20 b8 be 3a cf 66 be
       -0.0884947 -0.26284376 -0.3596219 -0.22539988
0000d0 f9 2d bd 3d 1e 3f 20 be 7c 32 ef 3d 22 b4 b6 3b
       0.09237284 -0.15649077 0.11679551 0.0055756727
0000e0 d8 12 a6 bd 65 42 04 3e a5 9b f8 be c1 81 95 bf
       -0.08109063 0.12915953 -0.48556247 -1.1680223
0000f0 81 53 03 bd 64 62 f0 bd 6d 59 22 3d cb e7 f2 bd
       -0.032062057 -0.117375165 0.039636064 -0.11860617
000100 cb 82 d7 3c bf 3f 9a 3d 96 68 85 3c 69 87 06 3e
       0.026307484 0.0753169 0.016285222 0.13137592
000110 17 9e 0f 3e 48 a5 b0 3d c1 b7 9f 3d be 6d 23 bd
       0.1402515 0.08625275 0.0779872 -0.03989958
000120 ec 26 bf 3d 45 3f 01 bf 07 08 13 3e 80 18 0f 3e
       0.09333596 -0.50487167 0.14358531 0.1397419
000130 65 7b 00 bd d1 1f 82 3d cd d6 a1 3d d0 42 8d bd
       -0.03136768 0.06353725 0.07902298 -0.06897509
000140 b4 1a be 3e d1 e2 7e be bd 8a b0 3d 34 83 10 3d
       0.37129748 -0.24891211 0.08620212 0.035281375
000150 bd cf cb 3b e0 9e 6b 3d 68 6c b4 3c ff ff c3 bd
       0.0062198327 0.057524562 0.022024348 -0.09570312
000160 90 10 ae 3d d0 1b f0 bd 95 25 a9 bc c2 24 b1 be
       0.08499253 -0.11724055 -0.020647803 -0.34598356
000170 fc 0d 2f 3d bf 44 92 3f 9e 0e 08 3e 0c 5f c3 3d
       0.042737946 1.142723 0.13286826 0.09539613

bias f4 [3]
000000 21 38 be 3e 2d 9e fb 3c eb f4 db 37
       0.37152198 0.030715073 2.6220883e-05

weight f4 [32, 3]
000000 a1 8f cf 3e 20 c8 17 bc a2 4c a3 3e 23 f4 50 3d
       0.40539268 -0.009264022 0.31894404 0.051014077
000010 4f e8 a7 bd 9a 23 e4 3e f4 bb 91 bc e9 b9 fa be
       -0.08198606 0.44558412 -0.017789818 -0.48969963
000020 c1 36 71 bf fa 49 81 be a1 91 6d bd 4d 7a 92 3e
       -0.9422417 -0.25251752 -0.05800021 0.28608933
000030 fd d4 4e 3e 0b 73 16 3d 85 40 32 3e 5e 29 34 bd
       0.20198436 0.036730807 0.17407425 -0.043984763
000040 9f 66 0c be 42 15 6c 3e 6d 5d dc 3c 4c 94 7c be
       -0.13711022 0.23054984 0.026900018 -0.24665946
000050 39 9c 39 3f b0 46 95 3e 15 07 57 bb a9 e6 85 3e
       0.72504 0.29155493 -0.0032810618 0.26152542
000060 c5 12 77 3e 6c ac ac 3e 51 ea ef 3e c5 7a fb 3d
       0.24128254 0.33725297 0.46858457 0.12279276
000070 e1 58 f1 be 5f c8 72 bf e8 ae b0 3e 47 96 1b 3e
       -0.47138122 -0.9483699 0.34508443 0.15194045
000080 d8 2e 14 3e 35 3a 00 3f ae f9 83 3d de d3 08 be
       0.14470994 0.50088817 0.06444107 -0.13362071
000090 fd 5b 95 3e 6b 21 2c 3e de 10 a7 3d 4f bc 5f be
       0.29171744 0.16809623 0.08157514 -0.21849178
0000a0 da df 96 3f 10 63 6f 3d f2 e4 e9 3e 7c eb 00 3c
       1.1787064 0.058444083 0.45682484 0.007868644
0000b0 64 e1 24 3e 55 18 99 3e ff 3d 76 3e 6d 4c 00 bf
       0.16101605 0.29901376 0.24047087 -0.50116616
0000c0 26 21 18 3f d7 25 fe 3e 56 2b e1 be 55 b5 7e 3e
       0.5942558 0.49638245 -0.43978375 0.2487386
0000d0 96 61 58 be d7 95 02 3d 22 af 75 be ea 5c 45 bf
       -0.21130976 0.03188118 -0.23992589 -0.770949
0000e0 f4 f3 ad be 2b d9 0c 3e df b7 0d 3f 6a 98 a9 3e
       -0.33975184 0.13754718 0.5535869 0.33124095
0000f0 2b 48 a9 3e a4 36 bf 3e f3 00 36 3e 90 71 37 bf
       0.33062872 0.37346375 0.177738 -0.7165766
000100 5f 10 41 bf 4c e0 89 be 63 13 ce bd fd b9 0b bf
       -0.75415605 -0.26928937 -0.100622915 -0.5458067
000110 bf 04 9f 3e 88 6d e0 3e 37 3e 18 be f2 f7 23 3d
       0.31058308 0.43833566 -0.14867483 0.04003138
000120 49 76 05 3f ef 49 a4 be 9a d7 9d bd 4f a6 ca 3d
       0.52133614 -0.32087657 -0.07707138 0.09895002
000130 0d e8 9e 3d fe 23 1b 3c 33 73 13 bf 52 74 82 3f
       0.07759104 0.00946903 -0.57597655 1.0191748
000140 e2 e3 8d 3e 60 09 90 3e d6 dd 1a 3e 4b 7c 89 be
       0.27712923 0.28132153 0.15123686 -0.2685264
000150 d8 b2 c1 3e 1d 29 af bd 13 bd bf 3e 66 6e 93 3e
       0.3783176 -0.085527636 0.3744894 0.28795165
000160 5f 49 91 bd 3a d9 a5 3e 95 18 13 3e 0a 5c d9 3e
       -0.070940726 0.32392293 0.14364846 0.42453033
000170 99 87 aa bf 44 c0 ed 3e 69 29 48 bf a0 ec 08 be
       -1.3322631 0.4643575 -0.78188187 -0.13371515

bias f4 [32]
000000 2b 68 50 bf 05 58 8b 3e 78 d2 8e bf bf 9d af 3f
       -0.8140895 0.2721559 -1.115798 1.3720015
000010 1a 82 30 bf 49 e3 a4 3f 81 9c cc be 63 13 b8 bf
       -0.6894852 1.2881862 -0.39963153 -1.4380916
000020 b3 d7 4a 3f ff 82 93 3f 3f 37 43 bf 2d 40 6f bf
       0.7923538 1.1524352 -0.76256174 -0.934573
000030 67 c7 4e 3f 9c 55 f8 3e c6 8d 00 bf 9e 95 95 3f
       0.80773014 0.48502815 -0.5021633 1.1686285
000040 dc 7b 48 bf 6d 89 4f 3f eb cd b3 3e 64 b7 52 3f
       -0.78313994 0.8106907 0.3511804 0.8231108
000050 87 d6 6b 3f 41 8f 3d bf fb 01 0d 3f d4 e3 b3 3e
       0.9212422 -0.74046713 0.55081147 0.35134757
000060 b1 2f 9d be c6 89 fd 3e 40 75 49 be e1 7f aa 3f
       -0.30700448 0.49519175 -0.19673634 1.3320276
000070 2a 1f 82 bf 99 6d 28 be 7f 24 27 3f 9c 49 50 3e
       -1.016576 -0.16448058 0.65290064 0.2034058

weight f4 [128, 32]
000000 ba e5 8f bd b9 8c b9 bc ed 8d 4b 3c 29 6e ce 3d
       -0.07026239 -0.02265011 0.012423974 0.10079605
000010 6e f7 12 3e 14 72 85 3e f9 18 01 3d a0 96 f9 3a
       0.143522 0.26063597 0.031517956 0.0019042082
000020 fa 14 ca 3c 8d e6 94 3d 17 9b 1a 3e ce 21 fe bd
       0.024668206 0.072705366 0.15098225 -0.124087915
000030 41 c2 ba 3d 8d f7 8b be 19 d8 43 be a3 76 88 bd
       0.09119082 -0.27337304 -0.19125403 -0.06663253
000040 25 9c d7 3d 55 2c 14 3e 1a 11 00 c0 8b a4 16 bd
       0.10527829 0.14470036 -2.0010438 -0.036778014
000050 4d 01 8f 3e f5 b5 e6 bd 3f bc 0d 3c 2a b0 b6 bd
       0.2793068 -0.11265174 0.008650838 -0.089203194
000060 d2 ce ad 3d be 2b 74 3e d2 27 8b 3d 87 65 6d 3c
       0.084867135 0.23844811 0.067947045 0.014489538
000070 87 22 4b bd 65 bb f8 3d 1c ca b9 3d a5 ec a9 3d
       -0.049593475 0.12145118 0.090717524 0.082970895
000080 3d 84 2f 3e 1e 44 23 3e cf ea 55 bd c1 4e 80 3d
       0.17140289 0.15943953 -0.052225884 0.06265021
000090 df 22 e4 3d c5 3d 35 3e 91 30 4d be f3 de 57 be
       0.11139464 0.17699344 -0.20038058 -0.21081142
0000a0 37 3f 55 3e 34 57 d3 bc b2 2a 07 3e 2c 1c 2f be
       0.20824896 -0.025798418 0.1319988 -0.1710059
0000b0 20 be 95 3d 9d 53 0c be 79 eb 03 bd 04 84 b5 bd
       0.07311654 -0.13703771 -0.032206986 -0.088630706
0000c0 17 74 98 bd db 56 bd 3d ea e4 fe 3d 99 86 2b 3e
       -0.074440174 0.09245082 0.12446006 0.16750564
0000d0 1a c5 84 3e ee 52 02 bd df b8 7e be a1 cb 32 3e
       0.25931627 -0.03181737 -0.2487521 0.17460491
0000e0 c1 67 cd bd 7f 68 68 3c 5b b2 45 bf 8a 9d 1b 3d
       -0.10029555 0.01418507 -0.77225274 0.037992038
0000f0 f5 0d 88 bd 43 ba b8 bd 20 1d 1d 3e d8 71 7f 3b
       -0.06643287 -0.090199016 0.15343142 0.0038977768
000100 d0 6d c1 be 3b e0 13 bf 56 54 9b be 42 ca c6 3c
       -0.37779093 -0.57764024 -0.3033778 0.024266366
000110 33 b4 2b be 2e ac 8a be dc ff 62 be 4f 56 db 3e
       -0.1676796 -0.27084488 -0.22167915 0.42839286
000120 72 99 d3 3b f8 9f c7 bb 6a 8c 10 be 11 df ab 3c
       0.006457501 -0.006092068 -0.14116064 0.02098039
000130 c5 e7 62 3d c4 1c 43 3e c6 af c6 be 5a 4a fe 3d
       0.055396814 0.19053942 -0.3880598 0.12416525
000140 59 af 65 3e 94 18 1d bd 32 6c 85 bd d2 6a 8c bd
       0.22430171 -0.038353518 -0.06514777 -0.06856312
000150 ca 31 45 3d 73 2a 8c 3e 03 8d bd 3e 17 2b 8c be
       0.048143186 0.27376136 0.37021646 -0.27376625
000160 90 2c 8b bf 7c ba 86 3d 3b 7d 0d bf af 0b 9b 3e
       -1.0872974 0.06578538 -0.5526921 0.3028235
000170 bd ae 5a 3d 70 56 98 be 85 78 fb 3e 27 9c 83 bf
       0.0533893 -0.29753447 0.49115387 -1.0282029
000180 ca ad 42 bc 65 06 f5 bd f5 d0 75 3e f3 c2 9c be
       -0.011882255 -0.1196411 0.24005492 -0.30617484
000190 a5 c5 58 3e 44 c6 b1 be 2f 09 68 3e 9b 5c f2 3e
       0.21169145 -0.34721577 0.22659753 0.47336277
0001a0 b4 00 49 bd f3 25 9d 3e c2 26 64 3e d4 2a 5f 3e
       -0.049072936 0.30693015 0.2228041 0.21793681
0001b0 d5 14 74 3d 44 23 f7 3d c3 01 09 3e 9f 89 e6 bd
       0.05959018 0.12067273 0.13379578 -0.11256718
0001c0 fc 16 e9 3e 6b 54 ae be 8b 64 39 3d 54 0b 62 bd
       0.45525348 -0.3404878 0.0452619 -0.055186585
0001d0 ca 43 29 be 94 43 40 3d 97 6d 3b be 8e 70 15 bd
       -0.16529766 0.046939448 -0.18303524 -0.036484294
0001e0 ff a6 48 be 6e c4 11 3e 49 bc 27 3e 9d cf 92 be
       -0.19594954 0.14235088 0.16380419 -0.2867402
0001f0 53 c6 7e 3e 28 33 62 bd c2 52 91 bd 78 8e 06 be
       0.24880342 -0.055224568 -0.07095863 -0.13140285
000200 39 60 28 3b 41 76 a4 bc 80 c4 b3 3e e6 1c c7 be
       0.0025692119 -0.02007592 0.35110855 -0.38889235
000210 3d ca 54 3b 51 25 5e be 8e 57 57 3e 97 84 bd 3e
       0.0032469176 -0.21693923 0.21029493 0.3701522
000220 23 a9 66 3d f0 57 51 bb 0f ac a1 bb 36 7e 4f 3e
       0.056313645 -0.0031943284 -0.004933841 0.2026299
000230 80 b4 7a bd 9c 3d d2 3d 93 5c 1b 3e 51 22 fd 3d
       -0.061207294 0.10265657 0.15172033 0.12360061
000240 80 eb 88 be dd 92 7b be 31 70 db 3e 1f ba 02 bd
       -0.26742172 -0.24567743 0.42859033 -0.03191578
000250 1b ed 63 be 3e 12 a0 bf fe 70 07 3e 45 d2 8a be
       -0.22258417 -1.2505567 0.13226697 -0.27113548
000260 9c 72 2d 3d d1 43 15 bd 76 09 ee 3e c5 18 86 be
       0.04234563 -0.036441628 0.46491593 -0.26190773
000270 42 89 10 3d 76 06 2d be 3f 59 34 3e c2 23 c3 3d
       0.03528715 -0.16896996 0.1761217 0.09528305
000280 d1 d6 19 be ee ba 1e 3d b5 5a 66 be 9e ba bd 3c
       -0.15023352 0.03875249 -0.2249554 0.023160275
000290 92 56 ee 3c 2c 28 7b 3e d0 07 cf be 52 e6 b2 be
       0.029094014 0.24527043 -0.40435648 -0.34941345
0002a0 a7 22 5e 3d c6 7d 05 3e 3c 79 8b bc 73 f9 98 be
       0.054232266 0.1303626 -0.017025582 -0.29877815
0002b0 dc 6f 52 3e a8 8f 5d 3e f7 52 6c bd 88 7a aa 3d
       0.20550483 0.21636832 -0.05769631 0.08324152
0002c0 4c 6a fa be 98 27 37 3d 3c 63 38 3e 98 1c c9 3d
       -0.48909223 0.044715494 0.18006605 0.09819907
0002d0 6a 05 ff 3d ad fb 0b bf a5 68 1c be e4 77 8c 3e
       0.124522045 -0.546809 -0.15274294 0.2743522
0002e0 ce 92 8e bc d8 af 02 3e 1a a3 72 3e 49 fe 6b 3e
       -0.017403986 0.12762392 0.23695031 0.23046221
0002f0 f0 a8 09 be 3a d0 cf bd 68 57 58 3d 02 64 f1 bd
       -0.13443351 -0.10147138 0.052817732 -0.11786653
000300 4e a5 6e bd 07 3a 25 3e 42 8f 7e 3d 55 3b 28 3e
       -0.058263116 0.16135417 0.06214834 0.16428883
000310 98 43 fd 3d 9c 84 0d 3e d1 2a 0a 3e ce d3 8c be
       0.12366408 0.13820118 0.13492896 -0.27505344
000320 45 a7 d8 3b d9 6f 33 be 24 20 f2 3d c9 69 a1 3d
       0.006611737 -0.17523135 0.118225366 0.07881505
000330 09 e9 b7 3d 1e 74 3d bf 3c 7e f4 3d fb 39 16 be
       0.08979995 -0.74005306 0.1193814 -0.14670555
000340 03 09 3a 3e 0c 5c 25 3e 1a 67 f1 3d ff 3d 3b 3e
       0.181675 0.16148394 0.11787243 0.18285368
000350 6f 40 9b bc aa e6 9b 3e 60 79 4e bd c9 e0 3f 3e
       -0.018951623 0.3044942 -0.05040872 0.18738092
000360 d4 8d 1c 3e 3f fe 72 3e 4e 90 05 c0 8f c1 11 3e
       0.15288478 0.237298 -2.0869327 0.14233993
000370 17 7d 83 bd f3 86 56 bc c2 1d 3e be 5f 58 95 3d
       -0.06420343 -0.013093698 -0.18566039 0.07292246
000380 5f 2f 10 be 83 d9 e7 bd 79 e3 9f 3b 91 60 c9 3d
       -0.1408057 -0.11320784 0.004879412 0.09832872
000390 14 19 81 be 31 f9 d8 3e 62 0d 3b be fa ed c2 be
       -0.25214446 0.42377618 -0.18266824 -0.38072187
0003a0 ea 16 47 3e d3 9b 29 3e 43 a7 93 be 0f ce 11 bf
       0.19442335 0.16563348 -0.28838548 -0.56955045
0003b0 6c 8b 3b 3e 4f 15 aa bd bf a4 1f be 24 d8 0b 3e
       0.18314904 -0.083048455 -0.1559019 0.1365667
0003c0 92 36 d7 bc e5 7a 41 3e 96 a9 94 be c2 3d 83 bc
       -0.026271138 0.18894537 -0.29035634 -0.01602066
0003d0 29 b6 0a bd ad 7a 8a bd d1 00 0b 3e 74 36 a0 bd
       -0.033865128 -0.0676168 0.1357453 -0.07822886
0003e0 23 d2 03 3e 5f fc e6 3c d5 16 be 3c 64 44 48 3e
       0.1287313 0.028196512 0.023204247 0.19557339
0003f0 53 8e ed bd 5a c6 e4 bd d4 92 93 bd b6 03 55 3e
       -0.11599412 -0.11170645 -0.072057396 0.20802197

bias f4 [128]
000000 ac cf 6f 3e d9 8b 73 3e a0 6b 2b 3e 89 b5 94 bf
       0.23419064 0.23783816 0.16740274 -1.16179
000010 d3 b4 38 bf eb ac 1f 3f 5e 06 9e 3d 19 82 1d 3f
       -0.72150916 0.62373227 0.07716058 0.6152664
000020 cc 74 a1 3e 12 07 d4 3b 65 75 09 be a9 50 8a bf
       0.3153442 0.0064705694 -0.13423689 -1.0805866
000030 62 ae 5c bc 11 87 97 bd 17 fb ba 3e 1a 73 4e 3e
       -0.0134693105 -0.07398809 0.3651969 0.20161095
000040 c7 d7 c7 be e3 9d 8c 3e 8c 7d 04 3f 83 a4 fc bd
       -0.39031813 0.27464208 0.5175407 -0.123360656
000050 fb f6 97 bd 2e d6 dd 3e a3 99 e1 3c d0 37 36 3f
       -0.07420155 0.4332747 0.02753908 0.71178913
000060 3c 3d 20 3f 31 f6 56 3e af 30 3f 3f f2 b3 fb 3e
       0.62593436 0.20992352 0.7468366 0.49160725
000070 1a 36 a1 3e d8 8d af be 4f 86 12 3f 8b cb 7d bd
       0.3148659 -0.34287906 0.5723619 -0.06196169
000080 fc c9 a1 ba c3 ed 26 3f 3a 44 19 3d 11 dd 9a 3e
       -0.0012343521 0.65206546 0.03741858 0.30246785
000090 04 a5 86 3e 5b 84 66 3e 5e 68 0c 3d 04 cb 6d 3d
       0.26297772 0.22511427 0.03427922 0.05805494
0000a0 63 44 08 bf b2 35 80 3e c6 91 20 3f 18 54 fb 3e
       -0.5322935 0.25040966 0.6272243 0.49087596
0000b0 ec c9 61 3e 0c 7e 79 3e 0a 4f 35 be 18 11 4f 3f
       0.22049683 0.2436449 -0.17705932 0.8088546
0000c0 56 a3 fa be 45 9e 12 3e c5 cf c4 bd c9 8e ca 3e
       -0.4895274 0.14318188 -0.096099414 0.3956206
0000d0 cd a9 80 3e 18 38 00 3f 2a 95 d5 be 35 e6 e9 3e
       0.25129548 0.5008559 -0.41715366 0.45683447
0000e0 fc 8f ed 3c 3e 00 38 3e cd d1 0e bf 60 38 36 3d
       0.028999321 0.17968842 -0.5578888 0.044487357
0000f0 31 a7 11 be e7 fc 9e 3e ee 4c 26 bf 7a 9b a2 3e
       -0.14223935 0.31052324 -0.64961135 0.31759244
000100 84 b1 49 3e 0f 2d 01 3f 7a ca c8 3e 5c 94 13 3f
       0.19696623 0.5045938 0.39216977 0.57648253
000110 97 02 5b be d4 b8 4d 3d 8a 21 13 be 74 3e 30 3f
       -0.21387707 0.050225094 -0.14368263 0.68845296
000120 0a 6f b3 3e fd 2e ca 3e 97 1f 2a 3c 43 1f e8 3d
       0.35045654 0.39488974 0.010383508 0.11334088
000130 76 ae ed 3d b7 01 cc 3e 5a 24 29 bf 10 36 06 3e
       0.116055414 0.39845058 -0.66071093 0.1310656
000140 84 cd e4 3c ec a9 0c 3d 08 e8 d8 3d 03 e0 ac 3e
       0.027930029 0.034341738 0.105911314 0.33764657
000150 52 26 23 3f 6d 5c 22 bf 23 72 f4 3d 05 76 a4 3e
       0.6373035 -0.6342228 0.11935832 0.32121292
000160 f2 a9 ad 3e 50 1e d5 3e cb 2a 9a 3e 47 32 46 3e
       0.3391872 0.4162469 0.30110773 0.19355117
000170 4e 84 86 3e cf 70 d1 3e 88 08 2c 3e 75 d5 a5 3e
       0.26272815 0.4090638 0.1680013 0.32389417
000180 fd de 6b be 7b f8 c6 bd 71 ce 2e be 0b 1a 14 be
       -0.23034282 -0.09715363 -0.17070939 -0.1446306
000190 a8 4c bb 3e f6 ec 91 bd 64 33 67 3f 80 ab 80 3e
       0.36581922 -0.07125275 0.9031279 0.25130844
0001a0 c6 1a 58 3e fa 34 ba be e0 dc 02 be 19 04 cb be
       0.21103963 -0.36368543 -0.1277957 -0.39651564
0001b0 1b 7a 99 bb db 51 f5 bd be b0 1d bd 45 7c 18 3f
       -0.0046837456 -0.11978503 -0.038498633 0.5956462
0001c0 9f 8d a3 3e 8c aa 82 3e 7b 1d 0f 3f 9a 3b 2e be
       0.31943986 0.25520742 0.5590436 -0.17014924
0001d0 99 35 2d be 6f ce 08 3e fa a7 d9 3d f8 9a 99 bd
       -0.16914977 0.13359998 0.10627742 -0.07500261
0001e0 45 8f 89 3d 52 99 da 3e 97 08 b6 3e 0a b9 0c 3e
       0.067167796 0.426951 0.3555343 0.13742462
0001f0 09 8d 5d 3e 21 38 4b be 26 59 e8 3e 5e e4 af 3d
       0.21635832 -0.1984563 0.45380515 0.085884795

weight f4 [784, 128]
000000 93 ad 29 bf c3 6f 15 be 6e 6b 6a be e8 70 3f be
       -0.6628048 -0.14593415 -0.22892544 -0.18695414
000010 04 10 8d bd 97 43 df bd b8 eb 5f bf c2 3d 01 bf
       -0.0688782 -0.109015636 -0.87469053 -0.5048486
000020 c9 1f db be 4f 3d bf bd 12 0e 75 3d 9f 3d 56 bd
       -0.42797688 -0.093378656 0.05982787 -0.05230486
000030 eb e5 c2 bd 5f 52 84 bb ec 5d fb 3c 44 72 bb 3b
       -0.095165096 -0.0040381397 0.030684434 0.0057204086
000040 86 96 ee bd 61 9f 9f bb 39 17 32 bd 36 1b 0d bd
       -0.11649804 -0.0048712944 -0.043479178 -0.03444978
000050 78 70 46 be c0 d6 2e bb 0f 5f 43 be 0c 39 9e bc
       -0.19378841 -0.0026678294 -0.1907923 -0.019314311
000060 32 64 a8 be 51 36 d1 3c 68 a0 c8 be 2a 9b 43 bd
       -0.32888943 0.025538595 -0.3918488 -0.047755398
000070 29 ba 0c be 23 a4 83 be c8 cd e2 3c 4e 27 03 be
       -0.1374289 -0.25711164 0.027686015 -0.12807962
000080 15 f2 b2 3c 0f c4 de bc bb ba 20 3d 0a 3c fe bd
       0.02184395 -0.027193097 0.03924058 -0.12413795
000090 69 0c ca bb c2 fb 04 3c 52 9f 36 be 7d d5 f0 bd
       -0.00616603 0.008116664 -0.17834213 -0.1175947
0000a0 ca 93 0e be 3e 02 e9 bd 1b 2c 8f bd 9d b7 82 bd
       -0.13923565 -0.11377381 -0.06990834 -0.06382678
0000b0 8d 1b 34 be ee 71 43 bd f3 a3 1c 3d 73 b4 07 bf
       -0.17588635 -0.047716074 0.03824229 -0.5300972
0000c0 6e 77 8b be ad f0 c9 bc 33 0e 0a 3c 67 07 86 bd
       -0.27239555 -0.024650896 0.008426237 -0.06544381
0000d0 b9 41 a4 bd 60 09 7e bd 61 8a 32 3c 06 79 1b be
       -0.08020348 -0.06202066 0.01089725 -0.15182886
0000e0 df 32 17 bc 34 11 08 be 21 d9 80 be 08 94 7b be
       -0.009228437 -0.13287812 -0.25165656 -0.24568188
0000f0 92 ef 32 3d 90 c5 0e be 7b fb a7 be 02 b9 1e bf
       0.043685503 -0.13942552 -0.32809052 -0.6200105
000100 21 34 ff bd 72 ed 82 3a ad bd d1 bd 5a db 57 bd
       -0.12461115 0.0009988977 -0.10241256 -0.052699424
000110 69 5d bd bd fd 99 dd bd b0 ae fd be 7b 6d c0 3c
       -0.09246332 -0.108203866 -0.49547338 0.023489704
000120 3d d3 21 be 15 e8 bb bd 64 6f 48 be 65 88 eb bc
       -0.15803237 -0.091751255 -0.19573742 -0.028751561
000130 aa 4b a9 bd 4f 0a e1 bd 1e 38 4c 3d c7 cb 20 bd
       -0.08266385 -0.10988294 0.049858205 -0.039256837
000140 88 32 31 3c 14 b4 86 3d a1 44 89 bd 0b c6 bb bd
       0.01081527 0.06577316 -0.06702543 -0.09168633
000150 a5 9e c7 bd bd 7d 1a bd 3f ce b0 bd ac 72 18 be
       -0.09747056 -0.03771757 -0.08633088 -0.14887494
000160 59 eb ca bd 62 64 f2 bd 71 84 b1 3d 6f 28 4c be
       -0.0990817 -0.11835553 0.08667839 -0.19937299
000170 89 ca 0e 3d 76 b0 bf bd 22 ea f8 bb 0d 40 c6 3b
       0.03486112 -0.09359829 -0.00759627 0.006050116
000180 18 34 0e be f1 2a 5f bd 18 7b d4 bc 78 fb eb bc
       -0.1388706 -0.05448431 -0.025937602 -0.028806433
000190 88 48 02 be d6 59 73 bc 16 21 a5 3c bb 75 1d bc
       -0.12722981 -0.0148529615 0.020157378 -0.009610589
0001a0 9d eb eb bd 2b ee 10 bc 5e 42 49 bf 12 1f 8b bc
       -0.11519549 -0.008845846 -0.78616893 -0.016982589
0001b0 fd f9 b5 3a 7b c6 5a bd 66 07 ca 3c 98 73 66 bd
       0.0013883706 -0.053411942 0.024661731 -0.056262583
0001c0 bb db fd bd 2e 3a 0a 3d 90 04 e2 bd 20 3a 9d 3d
       -0.12395426 0.03374689 -0.110360265 0.07677102
0001d0 56 cb 83 bc 62 f2 24 be c2 fb 81 bd 41 1a 25 bd
       -0.016088169 -0.16108087 -0.06346847 -0.04030824
0001e0 ab 38 1a bc 79 05 2f be 24 08 6a 3b 8e 83 e2 bc
       -0.009412925 -0.17091931 0.0035710419 -0.02765062
0001f0 ad 1a 18 3d c9 9f 14 3d 63 9e 3f bd 43 e3 a5 bd
       0.037134815 0.036285195 -0.04678191 -0.08099987
000200 f9 78 61 bf 24 c0 c2 bd ef da 55 be b3 66 71 be
       -0.88075215 -0.09509304 -0.20884298 -0.23574333
000210 cc 52 65 3d a2 66 f0 bd be 70 46 bf be 59 15 bf
       0.055987164 -0.11738326 -0.7751578 -0.5834006
000220 cf df 7f be 35 37 e6 3a cb c8 10 3d 2e 74 0f be
       -0.2498772 0.001756406 0.03534774 -0.14009163
000230 44 80 ac bd 2a 9a 75 bd fc 9a de bd b6 b1 cb bd
       -0.08422902 -0.059961475 -0.10869405 -0.09946005
000240 db db a2 bd 2e cd be bd 25 38 e0 bd e4 13 f5 bd
       -0.0795209 -0.09316479 -0.10948209 -0.119666845
000250 03 6d cc bd 57 27 f9 bd c2 8d a4 be 1d c6 d4 3b
       -0.0998173 -0.121657066 -0.32139403 0.0064933435
000260 b1 ba a6 be 1b f3 a4 bd 24 37 d8 be 3e a2 d5 bd
       -0.3256431 -0.08054181 -0.4222957 -0.10431336
000270 24 91 f0 bb e0 dd 8e be 95 35 32 bc fe af 7d bd
       -0.007341521 -0.27903652 -0.010877033 -0.061935417
000280 ef db d2 bd b4 a5 08 be a8 c1 46 3d b5 b7 f8 3a
       -0.10295855 -0.1334446 0.04852453 0.0018975647
000290 f5 f0 e1 bd a9 5c 15 be d3 5b 0e bd 89 b3 18 bc
       -0.11032287 -0.14586128 -0.03475554 -0.009320148
0002a0 0d 34 15 be d7 74 e3 3c 47 f7 18 be 44 1e 4c 3c
       -0.14570637 0.027765675 -0.14938079 0.012458388
0002b0 ec 86 ea bd 52 fc 9c 3c 53 8e a7 3d 9a 91 03 bf
       -0.114515156 0.019163284 0.08181443 -0.51394045
0002c0 3d f1 57 be 5d 47 7b bc a3 f8 90 3d 67 76 ff 3b
       -0.21088119 -0.015336839 0.07078674 0.007796097
0002d0 24 bb 9c bd 9a 8a 28 bd 24 4d 5a bd 10 53 3c bd
       -0.07652882 -0.041147806 -0.053296223 -0.045977652
0002e0 eb fd 03 3b 66 ed c6 bd 30 b5 94 be 09 89 5f be
       0.002014036 -0.09713249 -0.29044485 -0.21829619
0002f0 16 da 8f bd 29 32 e2 bd a4 d7 94 be 0e 4b 1c bf
       -0.070240185 -0.110447235 -0.2907077 -0.61052024
000300 b6 00 19 be ed 1f d4 bd b1 67 f7 bd ad 97 f9 bd
       -0.14941677 -0.10357652 -0.120803244 -0.12187133
000310 e9 40 69 bb cb a6 07 be 2f 61 15 bf d5 31 a5 bd
       -0.0035591668 -0.1324722 -0.58351415 -0.08066145
000320 76 bf e8 bd 30 c8 7f bb f2 94 28 be 97 f0 ea bd
       -0.11364643 -0.0039029233 -0.16463068 -0.1147167
000330 68 3d 20 3d 21 9a 85 bd f6 74 ea bb 29 77 a2 bc
       0.03912106 -0.065235384 -0.007155056 -0.01983221
000340 82 7d f8 3a 52 4f 05 bc f7 25 4e bd da d5 c2 bd
       0.0018958303 -0.008136587 -0.050329175 -0.09513445
000350 ba ab b2 3c fa fb 90 3b a7 0c 9f bd 0c 27 d0 bd
       0.021810401 0.004424569 -0.07766085 -0.101636976
000360 07 31 0e 3d e1 2a 0f be 13 01 10 3d 66 9a 46 be
       0.034714725 -0.13981201 0.035157274 -0.19394836
000370 f5 22 1e 3d 1d 67 7e bb 4c 80 b7 bd 29 7f 0a be
       0.038607556 -0.0038818785 -0.089600176 -0.1352507
000380 ac 24 b8 bd 4d 9a 2b bd e9 61 14 bd af 58 92 3c
       -0.089913696 -0.0418952 -0.036226187 0.017864553
000390 ba 56 48 bd 73 a7 92 bd 8b b4 bf 3c 3e bf be bd
       -0.048910834 -0.07160845 0.02340152 -0.0931382
0003a0 53 d1 e8 bd 72 49 71 bd cc 02 51 bf 47 8e 88 bd
       -0.113680504 -0.058907934 -0.8164489 -0.06667762
0003b0 7f 04 d0 bd 9e ad a0 bd b3 1a a0 bd 14 ad cb bd
       -0.101571076 -0.07845615 -0.078175925 -0.099451214
0003c0 46 db 6b bd e2 06 f2 3c cd cf a0 bd 6c fe e8 bc
       -0.057582162 0.029544298 -0.07852135 -0.02844163
0003d0 54 78 03 3d 43 9e 92 bd e0 95 7e bd 01 9a ab bc
       0.032097176 -0.07159092 -0.06215465 -0.020947458
0003e0 a7 da 10 be d6 98 c3 bd 57 7c 19 3d 10 00 80 bd
       -0.14145909 -0.095506355 0.037472095 -0.06250012
0003f0 69 ce 30 3c 77 31 9a 3d ee 8f 8c bc f7 0f 93 3c
       0.0107913995 0.07528966 -0.017158475 0.017951949

bias f4 [784]
000000 35 09 06 bd 8d 01 8a bd ca 0b c2 bd eb f4 6d bd
       -0.032723624 -0.06738577 -0.09474905 -0.0580949
000010 29 2b da bd b3 55 96 bd 0d 1b 3b 3d f9 74 83 bd
       -0.106527634 -0.073405646 0.045680095 -0.06418795
000020 ad 15 fe bd c9 c4 ed bc db e5 6a 3a b6 d0 bb 3c
       -0.12406478 -0.029024499 0.0008960643 0.02292667
000030 b2 d3 a8 bb d1 eb ac bd 08 95 30 bd 03 b3 22 3d
       -0.005152189 -0.08443416 -0.043110877 0.0397215
000040 a0 80 6b bc 60 1a a9 bc 27 7f 5c bd 91 54 07 3d
       -0.014373928 -0.02064246 -0.0538322 0.033039633
000050 d1 1b f7 bd 3f 54 6e bd fd 0e 08 be ec e9 8c 3b
       -0.120658524 -0.058185812 -0.13286968 0.0043003466
000060 ee 3b d3 bd 3a 7c 08 bd a1 58 8f 3b de 25 de bd
       -0.10314165 -0.033321597 0.004374579 -0.10847066
000070 67 ec c6 bd 83 d1 87 bd 53 6a 87 bd 68 65 b7 3c
       -0.09713059 -0.06631758 -0.066120766 0.022387221
000080 da 78 08 3c f4 0d c8 bd 1f f1 2e 3c 67 2d 9c bd
       0.0083295945 -0.09768286 0.010677605 -0.07625847
000090 67 97 29 bd 14 da 3a bd a8 f6 99 bc 7f 22 94 bd
       -0.041404154 -0.04561813 -0.018794373 -0.07233142
0000a0 99 a9 8b 3c 73 4d 9c bd ef c5 2d 3d 2f ad 3c 3d
       0.017048644 -0.0763196 0.042425092 0.0460636
0000b0 8e 4f 95 bd 65 3e c0 ba cd f9 f0 bd 86 c7 7f bd
       -0.072905645 -0.0014667033 -0.11766396 -0.06244614
0000c0 00 c2 fd bd 1e 2e 22 bd 48 ba ee bd fc 52 1a 3d
       -0.12390518 -0.039594762 -0.11656624 0.037676796
0000d0 cd 51 63 bb a1 d5 e2 bc 0c 9e 43 bd 8b 95 b7 bc
       -0.0034686208 -0.027689757 -0.047758147 -0.022410175
0000e0 4e 6c 56 bc 18 9b 6e 3c 2f 2c d5 bd cb ae 22 bd
       -0.013087345 0.014563344 -0.10408818 -0.039717477
0000f0 8d bd 2d 3d 98 89 95 3c d1 8c 12 bc 66 cc bd bd
       0.042417098 0.018254086 -0.008944706 -0.092675015
000100 d9 df 1d be 8c 1c 22 be 19 61 cd bd ca 15 b7 bc
       -0.15417422 -0.15831202 -0.100282855 -0.022349257
000110 12 e3 d8 bc ed a3 25 3d 19 2d c1 bc dd 36 ce bd
       -0.026475463 0.040439535 -0.023581075 -0.10069058
000120 19 1c 39 bd 58 7d 40 3c c7 68 ce bd a2 bd 02 bd
       -0.04519281 0.011748634 -0.100785784 -0.03191913
000130 13 a4 ca 3c 3d 88 1f 3c 07 22 d7 bc 3c 55 25 bd
       0.02473644 0.009737072 -0.026261343 -0.04036449
000140 81 27 31 3d 3e 8a 7d bd 7b 48 b7 bd be a4 8b bd
       0.043250564 -0.061899416 -0.089493714 -0.068185315
000150 ed b7 df ba de f3 59 bd 3a 12 0b 3d 71 5d 0c bd
       -0.0017068364 -0.053211085 0.03395293 -0.0342688
000160 d1 c4 f9 bd 91 a0 ab bd 42 da d0 bd ca 65 05 be
       -0.12195743 -0.08380235 -0.101978794 -0.1302711
000170 b1 35 f3 bd 2f 96 6f 38 01 8a 0d be 66 57 88 bd
       -0.11875475 5.712191e-05 -0.13822176 -0.06657295
000180 2f ec 30 bd 6d b2 d8 bd 3c 4c 8e bd 7e 32 9c bd
       -0.043193992 -0.10580907 -0.06948134 -0.07626818
000190 b5 cd 05 be a7 f2 16 be 61 7f 0d be 94 0a 03 be
       -0.13066752 -0.14741002 -0.13818122 -0.12797004
0001a0 33 aa be bd 89 61 76 bc ef 3b af bd 05 a7 9c 3d
       -0.09309807 -0.015037903 -0.08556353 0.07649044
0001b0 85 bb 25 3d fa e1 ad 3c 1b a1 d1 bd 3d 44 bd bd
       0.040462036 0.021225918 -0.102358066 -0.09241531
0001c0 85 1a c4 bd 14 4e 3a bd 03 bf 05 bc bc b0 b1 3c
       -0.09575371 -0.045484617 -0.0081632165 0.021690719
0001d0 38 ec e3 bd ad d2 73 bd 73 26 4f bb e9 a9 0f bd
       -0.111290395 -0.059527088 -0.003160861 -0.03507415
0001e0 e4 de 5f 3d 24 bc 91 bd 61 38 51 bd 9a 66 f7 bc
       0.054655924 -0.07115963 -0.051079158 -0.030200291
0001f0 4a 0f 1b bd f4 40 ba bc af 0f 58 bd e9 c1 43 bd
       -0.037856378 -0.02273605 -0.052749332 -0.04779235
000200 ef 05 12 be 30 14 c8 bd ce 17 81 bd 1d fc a3 bd
       -0.14260076 -0.097694755 -0.063033685 -0.08007071
000210 08 cc 3b be e8 fc 06 be d7 ef 82 bd c4 5c 68 bd
       -0.1833955 -0.13182414 -0.06393402 -0.056729093
000220 96 a9 99 3d 83 a4 59 3d ab 53 0c 3c eb 7b 01 be
       0.07503049 0.053135406 0.00856487 -0.12644927
000230 8d 05 11 bd a9 ff 53 bd ca f8 9f bd cf 6e 8e bd
       -0.035405684 -0.05175749 -0.078111246 -0.06954729
000240 58 93 36 3d 2c aa c2 bd 11 0b 11 bb a4 00 70 bd
       0.04457411 -0.09505114 -0.002213184 -0.05859436
000250 f1 5c 94 bd fd 34 08 3d 47 d2 52 3d 53 c9 cf bc
       -0.0724429 0.03325366 0.051470067 -0.025364554
000260 0e 0b 90 bd 4b 0e 9a b7 f8 47 50 3d a7 8c 54 3c
       -0.070333585 -1.8364886e-05 0.050849885 0.012972987
000270 36 8b 7a bc 68 66 22 be d2 9b 80 bd c9 6b c6 bb
       -0.01529198 -0.15859377 -0.0627972 -0.0060553295
000280 23 ce 9c bd 50 d5 cf bd d9 d1 17 be db d5 1a 3d
       -0.07656505 -0.10148108 -0.14826144 0.037801605
000290 9d e2 05 bd 8d 1e 14 3c 4c 77 09 bd 11 38 10 3d
       -0.03268682 0.009040487 -0.033561036 0.03520972
0002a0 27 a7 86 bd aa 7c c2 bd 32 e3 d9 bd 0c 82 0d 3c
       -0.065748505 -0.09496434 -0.10639037 0.008636963
0002b0 f0 d7 f1 bb 19 8a a6 3c 91 de 01 bd 83 07 6e bd
       -0.007380478 0.020329522 -0.031706396 -0.058112632
0002c0 9b 68 a9 bd 48 b9 37 bd 27 f9 9c bd e3 41 8c bd
       -0.08271905 -0.044854432 -0.076647095 -0.068485044
0002d0 7a ae ce 3c 9b a2 e6 bd 82 77 41 bd c1 d6 03 be
       0.025229681 -0.11261483 -0.047233112 -0.12874891
0002e0 74 33 3c be e5 39 5c be 0d 1f 46 be e7 b6 fb bd
       -0.18379003 -0.2150646 -0.19347782 -0.12290745
0002f0 4c 4c 84 bd 0a 31 19 be 38 0e 43 be 96 69 02 be
       -0.06459865 -0.14960113 -0.19048393 -0.1273559
000300 23 99 8c bd cc 7a dc bc ff ea df bc 39 46 01 be
       -0.06865146 -0.026914023 -0.027333735 -0.12624444
000310 53 e0 8d bd 74 e8 8a bc d8 b4 b4 3c 5f 41 6d bc
       -0.06927552 -0.016956545 0.02205889 -0.014480918
000320 45 0d aa bd 87 bc a4 bd 96 ae db bd 73 8a f7 bc
       -0.08303312 -0.08043771 -0.10726659 -0.030217385
000330 e1 ef b1 bd c1 37 16 bd b0 98 9c bd 1a ca 20 be
       -0.086883314 -0.036674265 -0.0764631 -0.15702096
000340 07 18 fc bd 02 93 53 be 58 c4 10 be a0 3d 8d bd
       -0.1230927 -0.20661548 -0.14137399 -0.0689652
000350 9d bf 26 be 4f 5c 35 be f2 c4 52 bd 6e 5d 6d bd
       -0.16284032 -0.17710994 -0.051457353 -0.05795043
000360 2e 71 7c be 7f 12 93 be c5 23 90 be 95 43 86 bd
       -0.2465255 -0.2872505 -0.2815229 -0.06555859
000370 e5 e0 68 3d 6f fe 19 bd f3 8b 0a 3d ae ea 9b 3c
       0.0568551 -0.037596162 0.033824872 0.019032802
000380 7b 24 50 bd 8e 52 e9 bd aa a0 e1 bd 0d f9 dc bd
       -0.05081604 -0.11392699 -0.11016972 -0.1078969
000390 dc 93 b3 bd 6b db 1c be a1 c3 1d be 43 a6 92 bd
       -0.08768436 -0.15318076 -0.15406658 -0.07160618
0003a0 9f 16 b6 bd 94 ce 23 be 7d fa ef bd 73 ef 43 be
       -0.088910334 -0.15996772 -0.11717699 -0.19134311
0003b0 4a 58 5f be 1f 21 51 be 63 2d 4d be b3 fe 32 be
       -0.21811023 -0.20422791 -0.20036845 -0.17479973
0003c0 89 a6 7b be 84 92 89 be 69 e2 e1 bd 09 eb 80 bd
       -0.24575247 -0.26869595 -0.110295124 -0.062948294
0003d0 65 f8 ff bd 96 71 a8 be be 39 5d be 6b d6 aa bd
       -0.12498549 -0.3289916 -0.21604058 -0.08341678
0003e0 6c 46 06 be 3f 01 ea 3c 21 e3 ce bd 4c 51 9c bd
       -0.13112801 0.028565047 -0.10101915 -0.07632694
0003f0 5c ad 82 bc d4 96 05 be e7 f9 b7 bd 18 d4 13 be
       -0.015951805 -0.13045818 -0.08983212 -0.14436376
